RNN/Model/GRU_Model_0.pth (torch, 172535 bytes, 15 tensors)

gru.weight_ih_l0 f4 [192, 9]
0.0040698857 3.918785e-05 -0.080486126 0.05364014 0.124377646 -0.012303157 -0.09224085 0.0016958124
0.07146113 0.031364776 -0.044367544 0.019563204 0.10411764 -0.08030913 -0.09853211 -0.091267385
-0.018206175 0.056567933 0.11909556 -0.09590662 -0.051661845 0.046966124 0.10416782 -0.04828908
-0.015802937 0.115191616 -0.11169809 0.09741323 -0.07543989 -0.11620712 -0.021056786 -0.10674677
-0.11149066 -0.04718139 0.067697264 0.1051397 0.059620205 -0.105510995 0.07666324 0.12543154
0.008422241 -0.09504283 0.08776855 0.037915386 0.09487445 -0.09006199 -0.016347291 0.06464733
0.09648772 0.0055701905 0.034950815 -0.09094491 -0.0047756336 0.03574339 0.011022288 -0.040230405
-0.0012628422 0.10335779 0.09318438 -0.0482152 -0.032522365 -0.06457278 0.10481643 0.10535789
-0.009263762 0.0785666 -0.061964583 0.11524328 -0.08077128 0.08710283 -0.1076174 0.10594852
-0.005545754 -0.043232024 0.03224351 -0.08592464 -0.07077234 -0.086642824 -0.062837355 -0.0223437
-0.0958177 -0.120101795 0.10455346 0.0888049 0.080618985 -0.026695235 -0.08609116 0.08511973
0.049424723 -0.064943455 -0.076379836 0.038056813 0.0042663077 -0.029823309 0.11266777 -0.061352704
0.045662124 -0.08061218 -0.016676722 -0.06358799 -0.029041545 0.08001623 -0.058862325 0.046394654
0.12849605 0.095664226 -0.111934036 -0.09324271 0.08213317 0.04655903 0.0873734 -0.107428156
-0.023946505 -0.029853584 0.026417123 -0.09619594 -0.11034955 0.034349605 -0.1139542 -0.06636562
-0.013415247 -0.05877162 0.110244684 -0.0080611985 -0.0830785 -0.053168856 -0.10942274 0.03053979
0.1019578 -0.09408688 0.036132015 0.0135831125 0.09976352 0.077128 0.09286099 -0.11160041
0.06289128 0.03267752 0.0435606 -0.09774245 0.050184034 -0.120172784 0.042229336 -0.027927885
-0.12095899 -0.07119486 0.066508114 -0.064004295 0.071615756 -0.10616088 -0.089478366 -0.043446682
0.05666806 -0.065772824 0.05151991 0.040848218 0.09348838 0.064273104 0.100755855 0.07453175
-0.09118858 0.087725155 0.114209555 -0.058417212 -0.026712209 -0.10982099 0.016693683 -0.12135984
0.050587617 0.10362288 0.110017255 -0.06338426 -0.020829769 0.0983487 -0.11429734 0.08913921
-0.07930194 0.073259 0.001994231 0.02305604 0.072245225 -0.07578883 0.066041745 0.00986298
-0.10062619 0.04679771 -0.108509816 0.02121207 -0.01018077 -0.11710061 0.081613176 0.10939613
-0.064033434 0.03265534 -0.0655149 -0.11396375 -0.120740674 -0.0043072244 0.089303926 0.028733281
-0.048596267 0.1237794 -0.09935144 -0.1079515 -0.010611738 -0.009829875 -0.019463679 0.026492374
0.038128406 -0.1137227 0.108418986 0.119056076 -0.038877428 -0.0022983723 -0.06607305 0.04542619
0.086141415 0.086362585 -0.05730446 0.1091468 0.024322027 0.007979555 0.08666053 -0.00916485
-0.12100047 -0.094229944 -0.026762778 0.028323598 -0.030427663 0.04038 -0.12117718 0.09265758
0.07471429 0.044741143 -0.037462924 -0.043496903 -0.005903919 0.06111613 -0.10759573 -0.036038958
0.059613876 -0.01614594 0.12432202 0.08858174 0.060472004 -0.07879023 0.081835225 -0.06200052
0.015986094 0.11446783 0.009172105 0.11298051 0.11610357 -0.074463494 -0.082393005 -0.06154741
00000000: ad5c 853b a25d 2438 e9d5 a4bd c3b5 5b3d
00000010: b5b9 fe3d 2e93 49bc c5e8 bcbd 0646 de3a
00000020: 375a 923d 5a78 003d beba 35bd 0343 a03c
00000030: a13b d53d 1d79 a4bd 34cb c9bd 65ea babd
00000040: 1e25 95bc c7b3 673d 5fe8 f33d b16a c4bd
00000050: 5f9b 53bd 8d5f 403d f055 d53d c5ca 45bd
00000060: 2975 81bc 95e9 eb3d f8c1 e4bd 9680 c73d
00000070: 3b80 9abd 00fe edbd 487f acbc 0d9e dabd
00000080: 3755 e4bd 4641 41bd dda4 8a3d 7c53 d73d
00000090: 5134 743d 2616 d8bd 9e01 9d3d 2071 003e
000000a0: 70fd 093c d1a5 c2bd ffbf b33d 2a4d 1b3d
000000b0: 894d c23d 6c72 b8bd c1ea 85bc d265 843d
000000c0: 5b9b c53d 2586 b63b 9628 0f3d 5341 babd
000000d0: eb7c 9cbb a967 123d d496 343c a3c8 24bd
000000e0: f485 a5ba 40ad d33d 74d7 be3d 4d7d 45bd
000000f0: 2c36 05bd bc3e 84bd ffa9 d63d e1c5 d73d
00000100: 09c7 17bc 87e7 a03d 93ce 7dbd ab04 ec3d
00000110: 6a6b a5bd f862 b23d 8366 dcbd 8afb d83d
00000120: 28b9 b5bb 1014 31bd c511 043d 42f9 afbd
00000130: 17f1 90bd cb71 b1bd dfb0 80bd 230a b7bc
00000140: 123c c4bd eef7 f5bd 2020 d63d 58df b53d
00000150: 911b a53d f7af dabc 9050 b0bd 4153 ae3d
00000160: 9471 4a3d 1301 85bd 086d 9cbd 76e1 1b3d
00000170: 62cc 8b3b 0350 f4bc 5cbe e63d f94c 7bbd
00000180: 3508 3b3d 0018 a5bd 9f9d 88bc 6c3a 82bd
00000190: 89e8 edbc 8ddf a33d 9f19 71bd 5208 3e3d
000001a0: 7894 033e 9beb c33d ac3d e5bd 09f6 bebd
000001b0: 6f35 a83d aeb4 3e3d d3f0 b23d 4b03 dcbd
000001c0: 762b c4bc 818f f4bc b968 d83c 6102 c5bd
000001d0: f2fe e1bd 2cb2 0c3d d260 e9bd b3ea 87bd
000001e0: a0cb 5bbc 83ba 70bd f7c7 e13d 1e13 04bc
000001f0: 1025 aabd 96c7 59bd 0819 e0bd 952e fa3c
00000200: 40cf d03d 9fb0 c0bd 2aff 133d b48b 5e3c
00000210: d150 cc3d 49f5 9d3d e72d be3d c18e e4bd
00000220: 25cd 803d ddd8 053d 9a6c 323d 322d c8bd
00000230: c68d 4d3d 261d f6bd abf8 2c3d 05c9 e4bc
00000240: 59b9 f7bd 9cce 91bd 6835 883d af14 83bd
00000250: 48ab 923d e06a d9bd 6f40 b7bd 26f5 31bd
00000260: c51c 683d e7b3 86bd 8b06 533d 7650 273d
00000270: d676 bf3d 9ea1 833d 1659 ce3d 1aa4 983d
00000280: 14c1 babd 3fa9 b33d b3e6 e93d e346 6fbd
00000290: 90d3 dabc d4e9 e0bd 31c1 883c 828b f8bd
000002a0: f634 4f3d 3c38 d43d ba50 e13d 9bcf 81bd
000002b0: 31a3 aabc 0b6b c93d b914 eabd 9e8e b63d
000002c0: 0e69 a2bd d108 963d a5b1 023b 05e0 bc3c
000002d0: 4ef5 933d 2d37 9bbd e540 873d 5698 213c
000002e0: 1b15 cebd f5ae 3f3d 653a debd efc4 ad3c
000002f0: 3fcd 26bc 72d2 efbd cf24 a73d 140b e03d
00000300: f623 83bd 9bc1 053d ad2c 86bd d465 e9bd
00000310: e346 f7bd 9e23 8dbb fae4 b63d 0f62 eb3c
00000320: e10c 47bd 0e80 fd3d c578 cbbd ad15 ddbd
00000330: dbdc 2dbc 7c0d 21bc 4b72 9fbc 8906 d93c
00000340: 882c 1c3d 72e7 e8bd c60a de3d acd3 f33d
00000350: f03d 1fbd 4aa0 16bb 4f51 87bd d010 3a3d
00000360: e96a b03d dede b03d 15b8 6abd 5c88 df3d
00000370: fd3e c73c aebc 023c 137b b13d 2b28 16bc
00000380: 18cf f7bd a1fb c0bd 9d3d dbbc e406 e83c
00000390: 6f43 f9bc 8065 253d be2b f8bd 42c3 bd3d
000003a0: ce03 993d 7d42 373d b972 19bd cf29 32bd
000003b0: aa75 c1bb e854 7a3d 265b dcbd 969d 13bd
000003c0: ae2d 743d 7e44 84bc 8b9c fe3d 586a b53d
000003d0: 7eb1 773d c65c a1bd 3a99 a73d 42f4 7dbd
000003e0: 45f5 823c 1c6e ea3d 9946 163c 5362 e73d
000003f0: b5c7 ed3d 5180 98bd aabd a8bd 2319 7cbd

gru.weight_hh_l0 f4 [192, 64]
-0.1063744 0.12281617 -0.12242272 0.0948904 0.034632213 0.051148705 -0.075782716 0.087953374
-0.06304168 0.12092306 -0.017309293 -0.11160541 -0.022283938 -0.053399332 0.074796714 0.06931458
-0.028471721 0.041268338 -0.05397981 0.0979897 0.05939108 0.12149642 0.021532686 0.12344372
-0.05802459 0.07756187 0.05006455 -0.120473824 0.065072075 0.091894604 0.06009726 -0.084300935
-0.015557184 -0.11681408 0.04687809 0.006974777 0.045912117 0.019150846 -0.048052736 0.030869493
0.0071036946 0.09287482 0.002092519 -0.057966977 -0.024811892 0.026109507 -0.11979901 -0.00027264396
-0.11887769 0.11785656 -0.06400991 -0.06617163 -0.047840994 0.05792998 0.08130823 -0.019392258
0.049198397 -0.027317964 0.07623341 0.089088485 0.011306739 -0.11156565 -0.061543234 -0.06513256
0.013042653 0.014771982 -0.11536732 -0.12383365 -0.11992624 0.12047782 -0.05345411 -0.022505134
0.07956429 0.09758045 -0.12547907 -0.08327248 -0.11226916 0.053230383 0.006541697 -0.088698566
-0.040094353 0.07230844 -0.11671481 0.074761584 -0.08298119 0.05562095 0.020579254 0.01911411
0.102820136 0.041513626 0.09530486 0.056446098 0.08209304 -0.09791733 -0.07598308 -0.039306823
-0.030386461 0.11509417 0.08401137 -0.045891993 0.014144207 0.0055297287 -0.121800005 -0.09088324
-0.11512639 -0.09722622 0.09194014 0.002103328 -0.118893504 0.10109193 0.08185998 0.027354876
-0.007021213 0.016283104 0.014333613 -0.05436966 0.08203548 -0.11343104 -0.10017389 -0.000527466
-0.11801671 -0.07426174 0.0019765203 0.11866514 0.0048161633 -0.065878406 0.060825523 0.07593056
0.100030035 0.017224222 -0.10571322 -0.0940648 0.06470931 -0.10577001 0.089623295 -0.0681845
-0.11766435 -0.066565216 -0.10476975 0.077056035 0.1106459 0.11505242 -0.07649019 0.027873373
-0.11804504 0.10830796 0.051589787 0.1020646 -0.009498009 0.11623234 -0.0012920771 0.010369768
0.123162545 0.11319614 0.045282297 0.08422848 0.12377536 0.014413526 0.07991518 -0.0930672
-0.0007701994 0.015504432 0.0731603 -0.12056734 0.033600826 -0.053543158 -0.025259962 -0.014292611
0.10121488 0.018037064 0.12248722 0.11303604 0.035631333 0.019661136 -0.11299782 0.04304324
-0.05910714 -0.05219028 0.08875897 -0.08973304 -0.11881604 -0.009801975 -0.05937688 0.08105797
-0.111958064 -0.09845443 0.018571446 0.03973059 -0.053002063 0.038484707 0.033339385 -0.0366806
0.045922145 -0.054288704 -0.10949773 -0.026808683 -0.088983156 -0.0195116 0.112338975 -0.11692909
0.07268538 0.040111102 -0.0195646 -0.045353364 -0.016954925 -0.12939462 -0.029818008 0.015162605
-0.11430859 0.07836605 0.015760701 0.12183916 0.04205925 0.11703546 0.039189827 0.11651565
0.11775114 0.04565323 -0.017870719 -0.008467792 -0.066494286 0.07169971 -0.0806789 -0.112482965
0.012168864 -0.018219728 -0.006133902 0.062097065 0.0038257225 0.10738047 0.1257805 -0.10550889
-0.049368333 0.11909109 -0.06063417 -0.067299284 0.026893921 -0.006929074 0.025919035 -0.047760617
0.01300813 0.03373866 0.049754705 -0.026970062 0.00059529004 0.11290981 0.037548024 -0.0070396373
-0.118400425 0.069187894 0.091923825 0.060883485 0.02537456 -0.06925087 -0.0917119 0.08256823
00000000: d2da d9bd 0b87 fb3d c3b8 fabd e655 c23d
00000010: 82da 0d3d 4e81 513d f833 9bbd e620 b43d
00000020: ff1b 81bd 82a6 f73d 38cc 8dbc 6191 e4bd
00000030: ce8c b6bc 42b9 5abd 052f 993d cdf4 8d3d
00000040: 873d e9bc fd08 293d ef19 5dbd d3ae c83d
00000050: 1044 733d 1dd3 f83d 5165 b03c 10d0 fc3d
00000060: 31ab 6dbd c2d8 9e3d 7c10 4d3d fbba f6bd
00000070: 8244 853d 3d33 bc3d 8b28 763d f8a5 acbd
00000080: 8fe3 7ebc 383c efbd 3d03 403d ac8c e43b
00000090: 580e 3c3d 3ce2 9c3c f2d2 44bd 05e2 fc3c
000000a0: 1cc6 e83b 2735 be3d a522 093b c86e 6dbd
000000b0: 4f42 cbbc 9be3 d53c 2f59 f5bd a7f1 8eb9
000000c0: 2576 f3bd c85e f13d a117 83bd fe84 87bd
000000d0: ebf4 43bd fd47 6d3d ee84 a63d 83dc 9ebc
000000e0: 4284 493d ecc9 dfbc 4320 9c3d 0674 b63d
000000f0: e73f 393c 887c e4bd c214 7cbd 3864 85bd
00000100: dab0 553c 2f06 723c b445 ecbd 7f9c fdbd
00000110: e39b f5bd 13bd f63d b2f2 5abd b05c b8bc
00000120: 9af2 a23d 42d8 c73d 967d 00be c38a aabd
00000130: 60ed e5bd 1a08 5a3d bb5b d63b 98a7 b5bd
00000140: fa39 24bd 7316 943d 2d08 efbd 9a1c 993d
00000150: 0bf2 a9bd cbd2 633d d395 a83c 3295 9c3c
00000160: 5d93 d23d 310a 2a3d 322f c33d 0634 673d
00000170: 6520 a83d e288 c8bd 049d 9bbd 3100 21bd
00000180: 07ed f8bc 7eb6 eb3d 270e ac3d 3ef9 3bbd
00000190: 1bbd 673c ba32 b53b 4872 f9bd fe20 babd
000001a0: 62c7 ebbd 8a1e c7bd 1d4b bc3d fdd7 093b
000001b0: 707e f3bd 4909 cf3d 35a6 a73d 5517 e03c
000001c0: 3412 e6bb 2564 853c 88d7 6a3c b8b2 5ebd
000001d0: 3802 a83d 884e e8bd f827 cdbd a545 0aba
000001e0: bfb2 f1bd 8a16 98bd 8288 013b b506 f33d
000001f0: e8d0 9d3b 42eb 86bd 2f24 793d 7b81 9b3d
00000200: 8cdc cc3d d019 8d3c 2c80 d8bd 0ca5 c0bd
00000210: 5186 843d f29d d8bd 6b8c b73d 51a4 8bbd
00000220: 02fa f0bd 5853 88bd 8691 d6bd 8ecf 9d3d
00000230: 519a e23d 9aa0 eb3d e4a6 9cbd b356 e43c
00000240: 99c1 f1bd 90d0 dd3d d04f 533d 3f07 d13d
00000250: 8a9d 1bbc 390b ee3d ea5a a9ba f6e5 293c
00000260: a53c fc3d 61d3 e73d ee79 393d fb7f ac3d
00000270: f07d fd3d b626 6c3c 92aa a33d 049a bebd
00000280: 35e7 49ba 4d06 7e3c 11d5 953d 02ec f6bd
00000290: 05a1 093d 1250 5bbd fbed cebc 8e2b 6abc
000002a0: bf49 cf3d 77c2 933c 94da fa3d 707f e73d
000002b0: 29f2 113d 6410 a13c 676b e7bd 1c4e 303d
000002c0: 541a 72bd 7ac5 55bd 43c7 b53d f5c5 b7bd
000002d0: d355 f3bd 7798 20bc 2c35 73bd b901 a63d
000002e0: 454a e5bd 7aa2 c9bd 2523 983c 8bbc 223d
000002f0: b118 59bd 24a2 1d3d e18e 083d 663e 16bd
00000300: dc18 3c3d d55d 5ebd 5940 e0bd e29d dbbc
00000310: cd3c b6bd cad6 9fbc fa11 e63d 8578 efbd
00000320: 13dc 943d 8a4b 243d f145 a0bc 73c4 39bd
00000330: 0ee5 8abc 0680 04be e544 f4bc 936c 783c
00000340: 9f1a eabd 617e a03d 961c 813c cf86 f93d
00000350: 5246 2c3d 4ab0 ef3d 8385 203d c29f ee3d
00000360: 8227 f13d e2fe 3a3d 9d65 92bc 7ebc 0abc
00000370: 282e 88bd 4cd7 923d fb3a a5bd 785d e6bd
00000380: ea5f 473c 8a41 95bc e6fe c8bb 7e59 7e3d
00000390: f9b8 7a3b 4bea db3d 9acc 003e 0b15 d8bd
000003a0: 7336 4abd 08e6 f33d 895b 78bd 35d4 89bd
000003b0: a450 dc3c 490d e3bb 2854 d43c a3a0 43bd
000003c0: 0d20 553c 8d31 0a3d 97cb 4b3d 52f0 dcbc
000003d0: 3d0d 1c3a 423d e73d f5cb 193d c2ac e6bb
000003e0: ec7b f2bd 62b2 8d3d 8f42 bc3d f660 793d
000003f0: 4fde cf3c 66d3 8dbd 73d3 bbbd 8819 a93d

gru.bias_ih_l0 f4 [192]
-0.017016854 -0.087664366 -0.06275444 0.048020054 -0.0956495 -0.114351705 -0.11815379 0.04249565
0.023297165 0.07316166 -0.09941304 0.03116808 0.09566339 0.050517894 -0.010827756 -0.08882961
0.04844596 0.10949027 0.0081897 0.091479495 -0.060802512 0.075369015 0.03035812 0.08799845
-0.07157944 0.06789059 0.016369693 3.285292e-05 -0.05530415 -0.07078187 -0.07455313 0.06929464
-0.09780054 -0.007363917 0.114610344 -0.08880339 0.024104489 0.07126732 0.06631235 0.07481559
-0.029232401 0.096839204 0.0891261 0.04527847 -0.081230596 0.11874816 -0.11953712 0.07097614
0.022679627 0.020295328 0.002549207 0.022127936 -0.008587597 -0.09446774 -0.07909961 0.12145661
0.03646242 -0.00011097683 -0.03347179 -0.020961788 0.07260831 0.029012475 -0.07255704 0.07080582
0.035382167 -0.080229215 -0.039000075 0.017254848 -0.115983166 0.06812833 -0.07912716 -0.080780335
-0.12047391 -0.03154278 0.0055256616 -0.009370378 0.05982586 -0.06297773 0.10722443 0.078129336
0.003538091 -0.053402435 0.076405786 0.011978454 0.036586206 0.044243716 -0.08094807 -0.12554282
-0.02063679 0.07862078 0.047922693 0.017816283 -0.110770635 -0.026164591 0.036025375 -0.015848845
-0.08850575 0.01847223 -0.12105825 -0.1286707 -0.12195404 -0.08761041 -0.12901893 0.10251768
0.07294013 0.06547453 -0.110451974 0.031559497 0.017307488 -0.087022886 0.044253092 -0.075182945
-0.036785427 0.07432418 0.07794413 -0.064226925 0.018509015 0.051979188 0.1121837 -0.101230405
-0.06597093 -0.11215385 -0.08255226 -0.030342933 0.1256104 0.030089412 -0.102099866 -0.085889295
0.12594594 -0.0020873297 0.07548321 0.07764951 0.071921885 -0.076905206 -0.07704939 0.04243077
0.0020403245 0.11920444 -0.1162477 0.03992686 -0.051123563 -0.01086331 -0.046348516 0.01978606
-0.12470986 -0.06109061 0.114850104 0.08774368 0.11645468 0.012039574 0.081309795 -0.11002751
-0.031828545 0.09926278 0.02102978 0.02968706 -0.118956774 0.09161177 -0.10617232 -0.09462809
0.10751929 0.120086335 0.03891259 -0.040167976 -0.09036121 0.001640552 -0.09122124 -0.04650449
0.10307459 0.009852575 -0.12467463 0.025175147 -0.08633837 -0.04130827 0.08060513 -0.07739755
-0.064744115 0.10809623 0.08853141 -0.020186145 0.10134805 -0.0839743 0.015036702 0.04274272
0.024737028 -0.106608205 -0.07400271 -0.04367578 -0.09487088 0.05253219 -0.10326121 0.013159026
00000000: ee66 8bbc 6089 b3bd 6685 80bd adb0 443d
00000010: e3e3 c3bd 3a31 eabd 9dfa f1bd eb0f 2e3d
00000020: b2d9 be3c c8d5 953d 1099 cbbd 3454 ff3c
00000030: 2beb c33d daeb 4e3d e666 31bc 4cec b5bd
00000040: 456f 463d 6f3c e03d 172e 063c 9a59 bb3d
00000050: 0e0c 79bd 125b 9a3d 98b1 f83c 8838 b43d
00000060: 3e98 92bd 390a 8b3d bc19 863c 8ecb 0938
00000070: 9b86 62bd 16f6 90bd 50af 98bd 59ea 8d3d
00000080: a64b c8bd 034d f1bb d4b8 ea3d 8dde b5bd
00000090: c776 c53c 9af4 913d c5ce 873d eb38 993d
000000a0: ca78 efbc a253 c63d bf87 b63d eb75 393d
000000b0: 3a5c a6bd 3c32 f33d e1cf f4bd f05b 913d
000000c0: a0ca b93c 6342 a63c 9910 273b a545 b53c
000000d0: feb2 0cbc 4d78 c1bd fafe a1bd 3ebe f83d
000000e0: 9e59 153d 3bbc e8b8 b719 09bd 0eb8 abbc
000000f0: aab3 943d 92ab ed3c c998 94bd a402 913d
00000100: e4ec 103d 374f a4bd 8bbe 1fbd 0a5a 8d3c
00000110: 9588 edbd de86 8b3d 6c0d a2bd 2970 a5bd
00000120: 06bb f6bd 0133 01bd 9c10 b53b 3786 19bc
00000130: f60b 753d 78fa 80bd 7b98 db3d 4602 a03d
00000140: 51df 673b 83bc 5abd a37a 9c3d 4741 443c
00000150: 6bdb 153d e638 353d 1ac8 a5bd 4c8e 00be
00000160: 7c0e a9bc ee03 a13d 964a 443d 74f3 913c
00000170: b7db e2bd 2057 d6bc 588f 133d 70d5 81bc
00000180: 8142 b5bd 1353 973c 63ed f7bd 41c2 03be
00000190: 0ac3 f9bd 166d b3bd 8a1d 04be caf4 d13d
000001a0: a361 953d 8317 863d a534 e2bd 8844 013d
000001b0: 6fc8 8d3c 0e39 b2bd bb42 353d 84f9 99bd
000001c0: 51ac 16bd 4737 983d 2ca1 9f3d 6889 83bd
000001d0: 38a0 973c 21e8 543d 91c0 e53d e351 cfbd
000001e0: c41b 87bd ebb0 e5bd 2911 a9bd be91 f8bc
000001f0: 03a0 003e 127e f63c bc19 d1bd bae6 afbd
00000200: f9f7 003e 95cb 08bb f196 9a3d b506 9f3d
00000210: c84b 933d 7a80 9dbd 12cc 9dbd e3cb 2d3d
00000220: f7b6 053b 7521 f43d 4613 eebd 598a 233d
00000230: f166 51bd 06fc 31bc f1d7 3dbd 6016 a23c
00000240: e267 ffbd 263a 7abd 8836 eb3d f5b2 b33d
00000250: cb7f ee3d a241 453c c085 a63d 1a56 e1bd
00000260: a65e 02bd 494a cb3d a546 ac3c 4732 f33c
00000270: 9c9f f3bd f49e bb3d e070 d9bd 5fcc c1bd
00000280: 1333 dc3d d3ef f53d cf62 1f3d 2d87 24bd
00000290: 4c0f b9bd ca07 d73a 34d2 babd 7e7b 3ebd
000002a0: c518 d33d b26c 213c 6a55 ffbd 1c3c ce3c
000002b0: 2cd2 b0bd dc32 29bd 4d14 a53d 9b82 9ebd
000002c0: 9098 84bd 8e61 dd3d f54f b53d 6a5d a5bc
000002d0: 918f cf3d b8fa abbd 805c 763c fe12 2f3d
000002e0: 4fa5 ca3c 6755 dabd bc8e 97bd 60e5 32bd
000002f0: aa4b c2bd fe2b 573d 9d7a d3bd f598 573c

gru.bias_hh_l0 f4 [192]
-0.039664492 -0.07966919 -0.065101765 -0.020138422 0.059802376 -0.061515503 -0.0003535689 -0.07439397
0.014464333 0.01669007 0.0912078 -0.041127257 0.02492321 -0.037934966 0.07487514 0.06993748
0.06605251 -0.08410912 0.0058414866 -0.12109548 0.059649814 0.018213855 0.050285675 0.016731879
-0.056838334 -0.040692847 -0.059896532 0.0100606475 -0.02904309 0.11330621 -0.09229626 -0.1145433
-0.0889649 -0.048966378 -0.02784806 0.078074075 0.081194155 0.12156588 0.042046048 0.12172915
-0.080786794 -0.018939555 0.067737676 -0.030004986 0.066602975 -0.103431866 0.026666654 0.013529723
0.08711863 -0.0015342262 0.09292983 0.015034871 0.05541216 0.09168746 -0.05635248 -0.09933245
-0.0861947 0.11963165 -0.08800693 -0.024053037 -0.07611891 -0.11932627 -0.10752874 -0.021369662
-0.0420143 0.06608384 0.054889012 -0.049468823 0.046284426 0.042383485 -0.015975136 -0.11339154
-0.0024173935 -0.12720796 -0.108152665 0.0059725605 0.02730405 -0.030175077 -0.11691376 0.12533388
-0.013680778 -0.102766946 -0.107934736 -0.018736107 0.061728206 -0.06981344 -0.021317676 -0.022873627
-0.10866312 0.06889799 0.03909015 -0.09083254 0.090484776 -0.04265913 -0.019651717 -0.10345833
-0.008075932 -0.1239961 -0.01531616 0.034304466 0.075736254 -0.08997904 0.05270883 -0.017343659
0.08397574 -0.10092057 -0.034997 -0.105633296 0.022850873 -0.07397212 0.006475513 0.0073373853
0.055690594 0.057418916 -0.027697174 -0.089045 -0.11574351 0.08492979 0.11655695 0.090350874
-0.10086553 -0.013326481 -0.038088392 -0.10604578 -0.09779463 -0.054813426 -0.07178497 0.019420505
0.04961609 0.10513464 0.040284533 -0.07922995 0.07189029 0.08660596 0.083206296 -0.042197414
-0.0906117 0.109885015 -0.057599757 0.11320792 -0.03937533 0.071529336 -0.058601085 0.10910873
0.08260192 -0.12402076 0.07391144 -0.021289049 0.067671455 0.03286707 0.026317758 0.08352924
0.02488374 -0.0687546 -0.08682702 0.054663584 -0.022087304 0.07130692 0.02139265 -0.010610105
0.053795375 0.11087565 -0.12608974 0.0033489906 0.008399729 -0.018498236 -0.083284825 0.0022426704
-0.088535234 0.09490186 0.06839589 0.039166074 0.0788954 -0.054627676 -0.004717206 0.056461107
0.058833666 0.067214295 0.019104116 0.078155816 0.024383344 -0.10397497 0.09742543 -0.084701106
0.07923433 -0.012875883 0.10235981 0.11883183 0.07816198 0.11608557 0.0006781851 0.05584859
00000000: 3c77 22bd 9a29 a3bd 1354 85bd 55f9 a4bc
00000010: 56f3 743d aef7 7bbd 375f b9b9 de5b 98bd
00000020: cffb 6c3c 9db9 883c 28cb ba3d 0e75 28bd
00000030: c22b cc3c b261 1bbd 2358 993d 623b 8f3d
00000040: 8a46 873d 6741 acbd f169 bf3b e800 f8bd
00000050: 5d53 743d 3935 953c 5af8 4d3d 4b11 893c
00000060: 50cf 68bd 8bad 26bd 1156 75bd 6ad5 243c
00000070: c6eb edbc 160d e83d d205 bdbd ad95 eabd
00000080: 3b33 b6bd f890 48bd 9d21 e4bc 4de5 9f3d
00000090: 1f49 a63d 88f7 f83d 7a38 2c3d 224d f93d
000000a0: 8c73 a5bd 2027 9bbc 0dba 8a3d 04cd f5bc
000000b0: 2467 883d 16d4 d3bd 0774 da3c c5ab 5d3c
000000c0: 416b b23d 1718 c9ba ff51 be3d d254 763c
000000d0: dcf7 623d a3c6 bb3d dcd1 66bd d06e cbbd
000000e0: d986 b0bd 7001 f53d fa3c b4bd e00a c5bc
000000f0: 3be4 9bbd 5561 f4bd 0738 dcbd 6e0f afbc
00000100: 3017 2cbd f756 873d 4dd3 603d d29f 4abd
00000110: bd94 3d3d 4e9a 2d3d 4ade 82bc d339 e8bd
00000120: 226d 1ebb ce42 02be 257f ddbd 78b5 c33b
00000130: beac df3c b931 f7bc 7b70 efbd 8657 003e
00000140: 5825 60bc 7a77 d2bd e30c ddbd 777c 99bc
00000150: b7d6 7c3d 59fa 8ebd 68a2 aebc 7961 bbbc
00000160: c58a debd 641a 8d3d fe1c 203d 6906 babd
00000170: 1550 b93d 57bb 2ebd a3fc a0bc f6e1 d3bd
00000180: ea50 04bc abf1 fdbd a2f0 7abc d782 0c3d
00000190: 9c1b 9b3d ee46 b8bd 37e5 573d 4a14 8ebc
000001a0: 79fb ab3d 72af cebd 0459 0fbd 4556 d8bd
000001b0: c131 bb3c b27e 97bd 8a30 d43b 736e f03b
000001c0: d21b 643d 1930 6b3d 2fe5 e2bc 3a5d b6bd
000001d0: ef0a edbd abef ad3d 69b5 ee3d e109 b93d
000001e0: 9692 cebd 5057 5abc 9302 1cbd 882e d9bd
000001f0: 8d48 c8bd 0b84 60bd 0004 93bd c017 9f3c
00000200: 3e3a 4b3d d550 d73d 6501 253d 5043 a2bd
00000210: 373b 933d 775e b13d 1068 aa3d 32d7 2cbd
00000220: a192 b9bd 650b e13d b9ed 6bbd 8ed9 e73d
00000230: 0748 21bd f97d 923d b107 70bd 6674 df3d
00000240: 322b a93d 99fe fdbd e25e 973d 5f66 aebc
00000250: 5597 8a3d 9f9f 063d 5798 d73c 6111 ab3d
00000260: fcd8 cb3c 36cf 8cbd 5dd2 b1bd ece6 5f3d
00000270: 6ff0 b4bc 5d09 923d a43f af3c 01d6 2dbc
00000280: 8a58 5c3d c612 e33d ab1d 01be bd7a 5b3b
00000290: 049f 093c 9d89 97bc 3c91 aabd c4f9 123b
000002a0: f651 b5bd e85b c23d 2513 8c3d 9b6c 203d
000002b0: e993 a13d 45c1 5fbd cb92 9abb c343 673d
000002c0: 92fb 703d a6a7 893d 3c80 9c3c 2810 a03d
000002d0: 94bf c73c d4f0 d4bd fc86 c73d c677 adbd
000002e0: 9c45 a23d 5ef5 52bc 05a2 d13d 1a5e f33d
000002f0: 6313 a03d 45be ed3d 3bc8 313a 7ec1 643d

gru.weight_ih_l1 f4 [192, 64]
0.061554305 -0.027342942 -0.0059536165 0.059960566 -0.014269494 -0.07482666 0.11716651 -0.041467886
0.087740034 0.09637954 0.031697314 0.09159862 -0.059466004 -0.056532677 -0.022117786 -0.10301991
-0.0025055662 0.021941846 -0.03100676 0.11553515 -0.117240004 -0.06744377 0.0066210194 0.01549896
-0.046733968 -0.040264715 0.104553185 0.00662027 -0.09043973 -0.07100524 0.06080521 -0.098830156
0.10218003 -0.050950658 0.010581232 -0.05751235 -0.096303664 0.06880569 0.0064584548 -0.0073029166
0.060823765 0.061051164 0.02663398 -0.044307083 -0.0003961956 -0.08483882 -0.0046894457 -0.061686657
-0.02236774 0.011728447 -0.097993426 0.024333885 0.043718982 0.11350925 0.019343285 -0.0006395783
0.10871065 -0.07769609 0.08015841 0.061677497 -0.02508526 0.093934245 -0.10324865 -0.038018737
-0.007801305 0.010782341 -0.12592253 0.039748717 0.10206838 0.10178249 0.007648088 -0.046262052
0.060091566 -0.07660421 0.09970636 -0.001089336 0.113894016 0.041483957 0.0337658 0.09111634
-0.061950948 -0.02652194 -0.05725795 -0.1104471 -0.009686838 -0.120921806 -0.048702575 -0.0820882
-0.048795436 -0.03044174 -0.013251235 0.023361905 -0.019361088 0.011402663 0.08640019 -0.0031706998
0.057224322 -0.002971144 0.12649164 0.11964308 0.042470217 0.038966008 -0.07840442 0.11468656
-0.10743697 0.097349286 0.11286599 -0.06559746 0.12842594 0.03940296 0.0115347225 0.010333708
-0.09479193 -0.10903514 -0.041928004 -0.118637644 0.087004066 -0.046566002 -0.010084971 -0.03171728
-0.087626725 -0.08407979 -0.018736828 0.1092379 0.08972404 -0.009806428 0.0132377045 -0.11443613
0.08814662 -0.11666922 0.050594598 -0.061439604 -0.043645542 0.020059152 0.028253663 -0.06966909
0.087284885 0.084436625 0.01790604 0.08061156 0.09607948 -0.037652194 -0.025343332 -0.013483605
-0.02421563 0.03212525 -0.119091146 -0.07240244 0.08116273 -0.11969627 0.047702864 0.020698057
-0.021000512 0.09723439 0.06719035 0.106511235 0.0018539989 -0.12536894 -0.07065531 0.074936435
0.024260774 0.08527588 0.0072096456 0.046452608 0.12030105 0.09797866 0.12619896 -0.039532986
0.07539371 0.10497268 -0.075090244 -0.030550804 -0.033049382 -0.121557586 -0.008387258 0.021362463
0.050878085 -0.047667112 -0.030847782 -0.09236294 -0.09374056 -0.11426675 0.07055481 0.015926974
0.08726525 0.07674132 0.05928367 -0.03606016 -0.0043047206 0.11199703 0.04560247 0.02915212
0.075955145 0.090389185 0.018129803 -0.120160066 -0.08631525 0.022820808 0.013702305 -0.09895336
0.057370808 0.106119916 -0.022811877 0.018500568 0.070654586 0.023130493 -0.0034537027 -0.090676926
0.0052689365 -0.012917457 -0.014135894 -0.12156655 -0.055209614 0.060548075 0.0206811 -0.007881524
0.001884778 0.032153387 -0.03591465 0.081361055 -0.06785111 0.044299357 -0.11336706 0.0048149046
0.08178391 0.07699043 -0.08838198 -0.029358724 0.11308697 0.051498182 0.02304935 0.021831388
0.08373793 0.091347046 0.034235004 0.10313201 -0.07657904 -0.08564062 0.004943272 0.05019331
0.02718275 0.05285939 -0.060840607 0.04808776 -0.031199181 -0.07728288 0.11810922 -0.066608176
-0.10012669 0.11744763 -0.09770736 -0.10479161 0.07874188 -0.03568087 -0.10070873 -0.044430044
00000000: 5e20 7c3d 4efe dfbc 8e16 c3bb 3699 753d
00000010: 99ca 69bc b83e 99bd fff4 ef3d 3bda 29bd
00000020: 0cb1 b33d a362 c53d 0bd5 013d 0f98 bb3d
00000030: a092 73bd cf8e 67bd 5c30 b5bc 1afc d2bd
00000040: 6d34 24bb 63bf b33c e401 febc b19d ec3d
00000050: 871b f0bd f61f 8abd 23f5 d83b 5aef 7d3c
00000060: 1e6c 3fbd 9dec 24bd fb1f d63d daee d83b
00000070: 7738 b9bd 326b 91bd e20e 793d 7767 cabd
00000080: c343 d13d a3b1 50bd e75c 2d3c 1292 6bbd
00000090: db3a c5bd ffe9 8c3d 72a1 d33b 4e4d efbb
000000a0: 5722 793d c910 7a3d 812f da3c 587b 35bd
000000b0: 79b8 cfb9 fabf adbd eca9 99bb 26ab 7cbd
000000c0: 8d3c b7bc ac28 403c c7b0 c8bd db57 c73c
000000d0: ad12 333d 8a77 e83d cf75 9e3c 60a9 27ba
000000e0: b0a3 de3d 211f 9fbd 182a a43d 8ba1 7c3d
000000f0: 9a7f cdbc 9960 c03d 0774 d3bd 89b9 1bbd
00000100: 17a2 ffbb 6aa8 303c d6f1 00be 8dcf 223d
00000110: 3a09 d13d 5773 d03d d09c fa3b 477d 3dbd
00000120: 9322 763d abe2 9cbd d932 cc3d 0dc8 8eba
00000130: 4441 e93d 15eb 293d 024e 0a3d 349b ba3d
00000140: 47c0 7dbd 8a44 d9bc 5087 6abd 1732 e2bd
00000150: 8bb5 1ebc daa5 f7bd 5a7c 47bd dc1d a8bd
00000160: b9dd 47bd f560 f9bc b51b 59bc 7761 bf3c
00000170: 259b 9ebc 3cd2 3a3c 95f2 b03d 84cb 4fbb
00000180: 0d64 6a3d 86b7 42bb 0687 013e 6e07 f53d
00000190: 40f5 2d3d d29a 1f3d 7f92 a0bd cae0 ea3d
000001a0: ea07 dcbd 105f c73d 4926 e73d f657 86bd
000001b0: 1782 033e 0065 213d 22fc 3c3c b64e 293c
000001c0: 4522 c2bd d14d dfbd b3bc 2bbd 4bf8 f2bd
000001d0: 302f b23d febb 3ebd 6f3b 25bc fbe9 01bd
000001e0: a475 b3bd 0632 acbd fa7d 99bc 1fb8 df3d
000001f0: 3dc1 b73d 24ab 20bc f5e2 583c 7d5d eabd
00000200: 3786 b43d 46f0 eebd 483c 4f3d 18a8 7bbd
00000210: abc5 32bd 1753 a43c 3a74 e73c abae 8ebd
00000220: 6bc2 b23d 1ced ac3d b0af 923c ac17 a53d
00000230: 52c5 c43d 3039 1abd d29c cfbc 57ea 5cbc
00000240: db5f c6bc c495 033d 0fe6 f3bd bb47 94bd
00000250: a538 a63d 5123 f5bd 1464 433d f98e a93c
00000260: 4409 acbc d322 c73d 189b 893d 9022 da3d
00000270: e101 f33a b760 00be bbb3 90bd 4678 993d
00000280: 88be c63c 1fa5 ae3d e43e ec3b 1745 3e3d
00000290: 6660 f63d 09a9 c83d 4d3a 013e 57ed 21bd
000002a0: 0468 9a3d ebfb d63d eac8 99bd ae45 fabc
000002b0: ca5e 07bd 2ff3 f8bd b66a 09bc 5500 af3c
000002c0: 8a65 503d 973e 43bd 7db4 fcbc c828 bdbd
000002d0: 0dfb bfbd b004 eabd 0a7f 903d 4979 823c
000002e0: 20b8 b23d 8e2a 9d3d 6fd3 723d d1b3 13bd
000002f0: 9d0e 8dbb b35e e53d a8c9 3a3d 6dd0 ee3c
00000300: 5f8e 9b3d f71d b93d f484 943c 7b16 f6bd
00000310: 0dc6 b0bd b4f2 ba3c a27f 603c 0fa8 cabd
00000320: a7fd 6a3d 6655 d93d f9df babc 818e 973c
00000330: 5ab3 903d 297c bd3c 8457 62bb d3b4 b9bd
00000340: 0ba7 ac3b bea3 53bc 3d9a 67bc e2f7 f8bd
00000350: 7a23 62bd 4201 783d 696b a93c 8221 01bc
00000360: a80a f73a 45b3 033d 3d1b 13bd a0a0 a63d
00000370: 86f5 8abd 3e73 353d fd2c e8bd 59c6 9d3b
00000380: 537e a73d 29ad 9d3d 9d01 b5bd b581 f0bc
00000390: 249a e73d c2ef 523d fed1 bc3c bdd7 b23c
000003a0: cb7e ab3d 2914 bb3d 013a 0c3d e036 d33d
000003b0: 79d5 9cbd 5964 afbd 2cfb a13b 8097 4d3d
000003c0: 5cae de3c 1683 583d 0034 79bd acf7 443d
000003d0: 6d95 ffbc 7d46 9ebd 3fe3 f13d de69 88bd
000003e0: 390f cdbd 6288 f03d cc1a c8bd fc9c d6bd
000003f0: 6c43 a13d 1b26 12bd 6140 cebd 47fc 35bd

gru.weight_hh_l1 f4 [192, 64]
-0.05157065 -0.040609498 -0.030065294 -0.026891027 0.030955747 0.0887442 -0.054463517 -0.016983975
-0.039345365 0.047630887 -0.09186372 0.108109646 -0.05121335 0.1098959 -0.00936489 0.08834319
-0.10086961 0.0117705 0.095163114 -0.0039598523 0.11836098 -0.050251782 -0.104702815 -0.07256167
-0.029527087 -0.043711323 -0.023456544 -0.114271566 0.059248917 -0.11027126 -0.09824116 0.11502563
-0.05626295 0.064769566 -0.021928662 -0.020154959 -0.0834468 0.0978753 0.110040575 -0.05863421
0.10262281 -0.05456796 0.045699913 -0.10585383 -0.022151513 -0.01694188 -0.054993533 -0.0013639611
-0.038329113 -0.021679442 0.06283186 0.04119502 -0.08020161 -0.03773783 -0.10232393 -0.052846786
0.01917574 -0.06658328 -0.0035028926 0.064133085 0.023767326 0.006815978 -0.07734844 0.01603303
0.06562487 -0.122136354 0.04110261 0.047252018 -0.10962496 -0.020796094 0.09310461 0.016440084
0.06460815 0.05985527 0.05493903 -0.029897153 -0.056635067 0.114381075 -0.043056812 0.11191973
0.03561614 -0.09689089 0.08548311 0.04289783 0.049940493 -0.0020545984 0.07815624 -0.11231262
-0.05042922 -0.05812401 0.022792349 -0.07127624 0.08972974 -0.08316108 0.06522067 0.11093043
-0.03615257 -0.12362911 0.039479528 -0.0878233 0.020157235 -0.06584022 -0.051381692 0.11856103
0.072723925 -0.093507454 0.11958426 0.042076677 0.09058094 -0.0924956 0.0637184 -0.0029903979
-0.018671433 -0.064613536 0.0697489 0.0069143544 0.025407353 -0.08851313 0.024263222 -0.08314274
0.09694292 0.02473923 0.09704077 0.0389588 -0.05055943 0.0046804277 0.05402594 -0.0728795
-0.088650286 0.050768144 0.050719664 -0.05408429 -0.0747767 0.10977689 0.052560795 -0.102470465
0.06973099 0.12358352 0.061224405 0.04407983 -0.0004898351 -0.043400727 0.0024125725 0.028227072
0.084847815 -0.039553363 0.061685134 0.039871994 0.039330907 -0.06583436 -0.059648346 0.12147457
0.110086195 -0.09594142 0.10665102 -0.06651011 -0.056720354 -0.03582312 -0.020097863 0.06836513
0.0049102167 0.044350225 -0.0052281916 0.035955958 -0.042600095 0.094631255 0.027469726 0.025844984
0.06863366 -0.08672582 0.014459302 0.03500785 -0.05570732 0.07593474 0.11678578 0.07396852
-0.019221738 -0.06445381 0.024474509 -0.06685267 0.029447766 -0.0632102 0.083403565 -0.015051039
-0.07799131 -0.035884492 0.12522501 -0.116703056 -0.033740293 0.08450383 -0.028457627 -0.07631157
-0.038694777 0.03521578 0.06724838 -0.09420235 0.0076268697 -0.022384232 -0.119363286 -0.08425908
0.11433583 0.020058239 -0.09638625 0.045701712 0.091409445 0.10521783 0.10521509 0.11609702
-0.048819788 -0.06698055 0.0072252383 -0.06938201 -0.07483145 0.0016426924 0.01486033 0.08562178
0.1074463 -0.015814869 -0.065809384 -0.11757192 -0.014167589 -0.03791866 -0.054237697 0.080701865
0.09037241 0.04633593 0.11215972 -0.012594341 0.027025606 -0.0898089 0.004194033 -0.06275739
-0.070257165 0.119474545 0.10921176 0.057361715 -0.041400317 0.039578307 -0.021669026 0.00058307836
0.07452847 -0.04973536 -0.034787167 -0.040791065 -0.03031379 0.10978542 -0.08951656 0.12178934
0.12182947 0.014252392 -0.1211965 -0.033680554 0.026749678 0.07429312 0.06525488 0.02649447
00000000: bf3b 53bd 2556 26bd 7e4b f6bc 924a dcbc
00000010: e896 fd3c 85bf b53d 2315 5fbd fa21 8bbc
00000020: 9b28 21bd 9b18 433d 0c23 bcbd 9768 dd3d
00000030: 17c5 51bd 1a11 e13d 326f 19bc 46ed b43d
00000040: ba94 cebd 0ed9 403c e1e4 c23d a6c1 81bb
00000050: 3e67 f23d d0d4 4dbd 6e6e d6bd 369b 94bd
00000060: cae2 f1bc a50a 33bd f027 c0bc 3607 eabd
00000070: feae 723d e6d5 e1bd a932 c9bd 8f92 eb3d
00000080: fb73 66bd e8a5 843d bda3 b3bc 031c a5bc
00000090: 28e6 aabd d872 c83d f45c e13d 6d2a 70bd
000000a0: e82b d23d a782 5fbd d52f 3b3d e5c9 d8bd
000000b0: 1777 b5bc b3c9 8abc e640 61bd f1c6 b2ba
000000c0: fdfe 1cbd 1699 b1bc fdad 803d 1cbc 283d
000000d0: be40 a4bd fc92 1abd 358f d1bd df75 58bd
000000e0: 7116 9d3c d15c 88bd c990 65bb 3558 833d
000000f0: b2b3 c23c 9158 df3b dc68 9ebd b357 833c
00000100: 5566 863d a022 fabd 365b 283d 558b 413d
00000110: 0d83 e0bd 925c aabc a1ad be3d 5bad 863c
00000120: 4751 843d cd2a 753d c007 613d e0ea f4bc
00000130: 2cfa 67bd a040 ea3d 575c 30bd 2c36 e53d
00000140: 3be2 113d bb6e c6bd c511 af3d a3b5 2f3d
00000150: 678e 4c3d 71a6 06bb 6110 a03d 2904 e6bd
00000160: df8e 4ebd 7113 6ebd 05b7 ba3c 47f9 91bd
00000170: 3ac4 b73d 5b50 aabd 6a92 853d 7e2f e33d
00000180: b814 14bd 4231 fdbd 49b5 213d b4dc b3bd
00000190: c920 a53c 3dd7 86bd 9c75 52bd 20d0 f23d
000001a0: 48f0 943d d680 bfbd 98e8 f43d 9858 2c3d
000001b0: 8082 b93d 556e bdbd cb7e 823d 8dfa 43bb
000001c0: d5f4 98bc 1a54 84bd 83d8 8e3d cf91 e23b
000001d0: 1523 d03c 5f46 b5bd aac3 c63c be46 aabd
000001e0: 028a c63d eda9 ca3c 50bd c63d 4393 1f3d
000001f0: 6817 4fbd 465e 993b 4e4a 5d3d d941 95bd
00000200: 488e b5bd 42f2 4f3d 6cbf 4f3d 7d87 5dbd
00000210: 8724 99bd b5d2 e03d fd49 573d 09dc d1bd
00000220: 1fcf 8e3d 5b19 fd3d 71c6 7a3d 0d8d 343d
00000230: 4768 00ba f6c4 31bd 401c 1e3b 763c e73c
00000240: b1c4 ad3d b502 22bd 8da9 7c3d d150 233d
00000250: 7219 213d 2ad4 86bd d351 74bd a9c7 f83d
00000260: df74 e13d ef7c c4bd da6b da3d 7436 88bd
00000270: 9a53 68bd 44bb 12bd 46a4 a4bc 0403 8c3d
00000280: e2e5 a03b 95a8 353d 4051 abbb 8e46 133d
00000290: 707d 2ebd 08ce c13d 3108 e13c dcb8 d33c
000002a0: ce8f 8c3d 4f9d b1bd b5e6 6c3c 6464 0f3d
000002b0: 5c2d 64bd ac83 9b3d 622d ef3d cf7c 973d
000002c0: e876 9dbc 5c00 84bd c47e c83c 0dea 88bd
000002d0: 713c f13c 5974 81bd 7dcf aa3d a298 76bc
000002e0: e8b9 9fbd 9efb 12bd fc3a 003e 0302 efbd
000002f0: 4333 0abd 5810 ad3d f81f e9bc 3e49 9cbd
00000300: 6a7e 1ebd 6c3e 103d 85b9 893d 29ed c0bd
00000310: d2ea f93b 235f b7bc bd74 f4bd 0690 acbd
00000320: e728 ea3d 2d51 a43c 2766 c5bd b831 3b3d
00000330: e034 bb3d 727c d73d 027b d73d 46c4 ed3d
00000340: 42f7 47bd 192d 89bd b1c1 ec3b 2818 8ebd
00000350: 3b41 99bd 9c4f d73a be78 733c 795a af3d
00000360: ce0c dc3d 2f8e 81bc 12c7 86bd 8cc9 f0bd
00000370: 2d1f 68bc 9950 1bbd 5928 5ebd 0547 a53d
00000380: 2c15 b93d beca 3d3d ffb3 e53d 7f58 4ebc
00000390: ce64 dd3c bbed b7bd 196e 893b f286 80bd
000003a0: fde2 8fbd 12af f43d 6aaa df3d 1ef4 6a3d
000003b0: 6193 29bd dd1c 223d 3e83 b1bc bad9 183a
000003c0: 62a2 983d 4eb7 4bbd fd7c 0ebd 8814 27bd
000003d0: a054 f8bc 2ed7 e03d 7554 b7bd b16c f93d
000003e0: bb81 f93d dd82 693c df35 f8bd 9ff4 09bd
000003f0: 2422 db3c fe26 983d 5aa4 853d ee0a d93c

gru.bias_ih_l1 f4 [192]
-0.09115953 0.07462401 0.033994332 -0.043650597 -0.09087746 0.08574471 -0.0849675 -0.018986437
0.057165388 0.08502239 -0.056568436 0.051753387 -0.008186287 0.048845004 -0.02394507 -0.046345983
0.050474692 -0.039971016 -0.05821255 -0.04240193 0.09430961 -0.11281366 -0.008378033 -0.1224879
-0.0998018 0.10796919 0.05085074 -0.11265755 -0.08026654 -0.11429879 0.0865347 -0.032634467
-0.0028700298 0.023202663 -0.025528135 -0.08265383 0.06647846 0.023695385 0.01855659 -0.119969
-0.057011522 -0.00025573373 0.058052786 0.014020865 -0.09552636 -0.05124095 0.030231562 0.0015670551
-0.059615288 0.06876631 0.0003302333 0.0876385 0.08684009 0.02181639 -0.020565279 0.020725137
-0.09262535 0.03599802 -0.037926983 0.036020037 -0.049687687 0.11783405 0.086650915 -0.120012924
-0.082232535 0.082382955 -0.10381097 -0.07359231 0.07221646 -0.052513145 -0.0562728 -0.10977841
0.041968588 -0.055117663 0.05359567 -0.094143055 0.051747028 -0.06396815 -0.013616492 0.032321405
0.059290018 0.10867015 -0.102358095 0.04153234 0.010820376 -0.12355822 -0.0040951287 0.06750012
0.091721006 -0.11408787 0.05631564 0.078120336 0.0013067878 0.1091899 0.12271821 -0.0447621
-0.11219691 0.1150048 -0.07096126 0.028137505 0.031659152 0.10976846 0.0010553446 -0.032201856
0.062906966 -0.045851402 -0.045635715 0.1160666 0.021666316 -0.09559683 0.13051403 0.02076617
0.005136439 0.114601195 -0.11610304 0.09885511 -0.08833993 0.085952476 -0.11808281 -0.09888481
0.088980414 0.008051144 -0.052804183 -0.012129366 0.08405252 0.10828028 0.10378192 -0.09258307
-0.039716657 0.101283364 -0.06575571 -0.062219627 0.06246948 -0.08588291 -0.0057976474 -0.103212416
-0.08165167 0.1053741 -0.074578434 -0.10076588 0.045550153 0.0462282 -0.09849632 -0.0050823474
-0.005622257 0.06578053 -0.04355204 -0.020490475 0.1166019 0.05234571 0.03702105 -0.10959113
-0.07330034 -0.03390005 0.053799715 0.088629425 -0.0943398 0.05479892 0.07916293 -0.06835306
0.058911607 -0.004455421 0.09398999 -0.11056753 0.11330315 0.10489461 -0.0016257779 -0.045982007
0.004051568 0.055270668 0.086487256 0.078978576 -0.0031186412 0.090762325 -0.05638902 0.10965197
-0.11230644 0.040970888 -0.05161157 0.11600871 0.016159285 -0.01401033 -0.088204086 0.11807528
-0.041413933 0.11989058 0.030647242 -0.016279748 -0.12535694 -0.1246077 0.03134634 0.018526414
00000000: d9b1 babd 79d4 983d a43d 0b3d f8ca 32bd
00000010: f61d babd ec9a af3d 7103 aebd 7289 9bbc
00000020: 4126 6a3d 3820 ae3d 4eb4 67bd 5cfb 533d
00000030: c71f 06bc b311 483d 7428 c4bc 49d5 3dbd
00000040: 8dbe 4e3d a6b8 23bd 4870 6ebd a5ad 2dbd
00000050: 6625 c13d d90a e7bd 0444 09bc f0da fabd
00000060: e364 ccbd f31e dd3d de48 503d 00b9 e6bd
00000070: c962 a4bd 7c15 eabd 1b39 b13d b8ab 05bd
00000080: 1c17 3cbb 8313 be3c 6120 d1bc 6946 a9bd
00000090: dc25 883d d31c c23c fd03 983c 4fb2 f5bd
000000a0: ea84 69bd 0014 86b9 c2c8 6d3d c5b7 653c
000000b0: 53a3 c3bd 08e2 51bd 2ea8 f73c a565 cd3a
000000c0: 292f 74bd 5ad5 8c3d 2a23 ad39 d07b b33d
000000d0: 38d9 b13d 49b8 b23c 8478 a8bc c3c7 a93c
000000e0: 5cb2 bdbd a972 133d 5359 1bbd bf89 133d
000000f0: 5185 4bbd fa52 f13d 0976 b13d 56c9 f5bd
00000100: 8869 a8bd 65b8 a83d d99a d4bd 91b7 96bd
00000110: 39e6 933d 0618 57bd 4f7e 66bd 81d3 e0bd
00000120: 41e7 2b3d 0fc3 61bd 2287 5b3d 13ce c0bd
00000130: b1f4 533d bc01 83bd b517 5fbc 7363 043d
00000140: 17da 723d 758e de3d 1fa1 d1bd d11d 2a3d
00000150: f247 313c 180c fdbd 6e30 86bb 813d 8a3d
00000160: 39d8 bb3d e7a6 e9bd 3bab 663d 8efd 9f3d
00000170: 8648 ab3a f49e df3d af53 fb3d 7758 37bd
00000180: 7ec7 e5bd a387 eb3d 2354 91bd a080 e63c
00000190: 07ad 013d 49ce e03d 7d53 8a3a 18e6 03bd
000001a0: 5ed5 803d aece 3bbd 84ec 3abd 53b4 ed3d
000001b0: 8f7d b13c 45c8 c3bd 78a5 053e d11d aa3c
000001c0: 934f a83b 08b4 ea3d 6ec7 edbd 8c74 ca3d
000001d0: 91eb b4bd da07 b03d 66d5 f1bd 1f84 cabd
000001e0: 5d3b b63d f2e8 033c 3349 58bd 40ba 46bc
000001f0: ba23 ac3d 0dc2 dd3d 9e8b d43d 319c bdbd
00000200: efad 22bd a76d cf3d eeaa 86bd 02da 7ebd
00000210: ffdf 7f3d 61e3 afbd 31fa bdbb 0861 d3bd
00000220: fe38 a7bd 60ce d73d 94bc 98bd 575e cebd
00000230: cc92 3a3d c859 3d3d 70b8 c9bd d289 a6bb
00000240: e93a b8bb f1b7 863d a063 32bd a4db a7bc
00000250: facc ee3d 7568 563d 62a3 173d 5071 e0bd
00000260: 7d1e 96bd c7da 0abd 175d 5c3d 5883 b53d
00000270: 3a35 c1bd d574 603d 2d20 a23d b0fc 8bbd
00000280: 4c4d 713d c8fe 91bb d37d c03d 3b71 e2bd
00000290: 7b0b e83d fcd2 d63d 0e18 d5ba a157 3cbd
000002a0: 04c3 843b 7f63 623d 3b20 b13d 85bf a13d
000002b0: 1e62 4cbb 99e1 b93d 2cf8 66bd 3691 e03d
000002c0: eb00 e6bd 17d1 273d a766 53bd f995 ed3d
000002d0: 7a60 843c 958b 65bc 58a4 b4bd 74d1 f13d
000002e0: a8a1 29bd 3189 f53d ed0f fb3c 1b5d 85bc
000002f0: 925d 00be 5232 ffbd 0565 003d b5c4 973c

gru.bias_hh_l1 f4 [192]
-0.1242558 -0.068388954 0.0833987 -0.04993257 -0.032936245 -0.04940821 0.098760866 0.12386185
-0.10345449 0.009168404 -0.1222305 0.03100483 -0.0002329071 -0.040772382 0.046938367 0.071525894
-0.06818244 0.10451249 0.00590304 0.05418493 0.013434841 -0.02266731 0.017114867 -0.036262404
-0.043523382 -0.061285745 -0.08231343 0.0042132796 0.023912976 -0.054219887 0.09959071 0.033906326
-0.019351026 0.097082645 0.044026528 -0.0018407574 0.03967769 -0.035506718 0.1244665 -0.106055535
-0.08190044 0.115848444 -0.018165762 0.020175235 0.051789872 -0.06422211 0.0729025 0.05665511
-0.098747626 0.05969752 0.07111649 -0.0037197815 -0.0748757 0.109384686 -0.06408913 0.09063506
0.0113772405 0.04013217 0.10947717 0.059906445 -0.060024146 0.07318572 -0.0012255014 -0.11353655
-0.04205049 -0.053498395 -0.0130317565 0.06471555 -0.05088357 -0.06681734 0.0029790571 0.01441614
0.06844194 -0.05355626 -0.008622638 -0.075034745 0.10757393 0.009703982 0.053888112 -0.12651722
-0.063183196 0.008360768 0.10593759 0.11268458 -0.013319225 -0.1081913 0.028999096 0.023880867
-0.002053418 -0.10881624 -0.08418712 0.09598926 -0.061577566 0.05517876 0.09195199 -0.017411433
-0.13078612 -0.035577726 0.10641336 -0.07415168 -0.066459976 0.0036221514 0.0010987801 -0.065609425
-0.017209888 0.0395877 -0.011975958 0.038452096 0.008816901 -0.11691176 0.10384238 -0.05950945
-0.021090334 -0.12979235 -0.07563658 -0.07565382 -0.03585905 0.0342968 -0.11607745 -0.0744505
-0.120835535 0.035402752 0.028743071 -0.027529161 -0.08923871 -0.0051745554 -0.09073106 0.053299878
0.0008605268 -0.104958065 0.11543157 -0.07996762 0.1098742 -0.057137925 -0.10273298 -0.033533234
0.0711701 0.0012511913 0.017765347 -0.06441685 0.038486656 0.07571391 -0.027782967 0.123371355
-0.10635913 -0.060243316 0.01091587 0.070096135 0.099586695 0.10985962 -0.07067957 0.11217944
0.017398145 0.043985307 0.07972035 0.059160337 0.080399394 -0.031409487 -0.09536539 -0.09756685
0.09129376 0.08274126 -0.11417759 0.12245917 0.053410694 0.08004871 0.03603148 0.077027254
-0.054678462 0.08561109 -0.07865894 -0.020066468 -0.00049518974 -0.016199645 -0.08204708 -0.0618613
-0.079111904 0.048938923 -0.009691661 0.123341136 -0.03106636 -0.028962778 -0.03767357 -0.032162797
0.07417337 0.003437432 -0.020585418 0.006559574 0.115871586 -0.03016443 -0.047342114 -0.077882014
00000000: d379 febd 820f 8cbd f0cc aa3d 1886 4cbd
00000010: 28e8 06bd 4360 4abd 2343 ca3d 48ab fd3d
00000020: f3df d3bd 1337 163c fc53 fabd d7fd fd3c
00000030: 8638 74b9 f100 27bd 7242 403d 2b7c 923d
00000040: 3ca3 8bbd a50a d63d 4a6e c13b 04f1 5d3d
00000050: cf1d 5c3c cbb0 b9bc 7a34 8c3c e387 14bd
00000060: 9345 32bd c306 7bbd f293 a8bd 8d0f 8a3b
00000070: 25e5 c33c ac15 5ebd 37f6 cb3d 5ce1 0a3d
00000080: 0b86 9ebc 44d3 c63d 2955 343d 9245 f1ba
00000090: 1385 223d 7e6f 11bd 4be8 fe3d a533 d9bd
000000a0: 6bbb a7bd f341 ed3d 5dd0 94bc 8946 a53c
000000b0: 9e21 543d e286 83bd e84d 953d 300f 683d
000000c0: 323c cabd 6385 743d 86a5 913d 94c7 73bb
000000d0: 6e58 99bd 1405 e03d 2941 83bd e09e b93d
000000e0: 9b67 3a3c a161 243d 9135 e03d 7660 753d
000000f0: e1db 75bd 65e2 953d 01a1 a0ba da85 e8bd
00000100: 223d 2cbd 2221 5bbd 2683 55bc 9689 843d
00000110: 4a6b 50bd 88d7 88bd 493c 433b ac31 6c3c
00000120: 4a2b 8c3d cf5d 5bbd f745 0dbc d1ab 99bd
00000130: b84f dc3d 73fd 1e3c c8b9 5c3d bb8d 01be
00000140: 3166 81bd 9afb 083c cff5 d83d 2cc7 e63d
00000150: e138 5abc 6693 ddbd 838f ed3c cfa1 c33c
00000160: a392 06bb 0ddb debd 4c6a acbd 0496 c43d
00000170: c238 7cbd 2003 623d 5351 bc3d 6ca2 8ebc
00000180: ccec 05be f3b9 11bd 3fef d93d d6dc 97bd
00000190: 2b1c 88bd 9e61 6d3b f104 903a 3c5e 86bd
000001a0: c0fb 8cbc b626 223d cf36 44bc f27f 1d3d
000001b0: c374 103c 6f6f efbd 50ab d43d 2ec0 73bd
000001c0: a3c5 acbc 49e8 04be 5ae7 9abd 64f0 9abd
000001d0: f0e0 12bd cd7a 0c3d 04ba edbd 8179 98bd
000001e0: 9f78 f7bd 7a02 113d 9776 eb3c d684 e1bc
000001f0: c9c2 b6bd 518f a9bb 35d1 b9bd f950 5a3d
00000200: fa94 613a 41f4 d6bd 6367 ec3d 10c6 a3bd
00000210: b905 e13d 7509 6abd ab65 d2bd 255a 09bd
00000220: a1c1 913d 03ff a33a a288 913c fbec 83bd
00000230: 2fa4 1d3d e50f 9b3d 1b99 e3bc 1faa fc3d
00000240: d1d2 d9bd b2c1 76bd 7ad8 323c 908e 8f3d
00000250: 1cf4 cb3d 15fe e03d 73c0 90bd 56be e53d
00000260: 8e86 8e3c f029 343d 6c44 a33d 1c52 723d
00000270: 70a8 a43d 3ca7 00bd ee4e c3bd 21d1 c7bd
00000280: 39f8 ba3d 4074 a93d f1d5 e9bd e0cb fa3d
00000290: 2cc5 5a3d 94f0 a33d bf95 133d 77c0 9d3d
000002a0: 86f6 5fbd de54 af3d f017 a1bd 6f62 a4bc
000002b0: 9fcf 01ba 1eb5 84bc 4d08 a8bd 4662 7dbd
000002c0: 6c05 a2bd 2e74 483d c6c9 1ebc 479a fc3d
000002d0: e17e febc 5943 edbc 9a4f 1abd 23bd 03bd
000002e0: 35e8 973d 8a46 613b c0a2 a8bc b2f1 d63b
000002f0: 154e ed3d 651b f7bc cee9 41bd 9b80 9fbd

batch_norm.weight f4 [64]
1.0071048 0.99688375 0.9966602 1.0095453 1.0051395 1.0066079 0.9961268 1.0004833
0.9993016 1.0018888 0.9977887 1.005754 0.99489456 1.0024798 1.0067352 1.0033627
0.99692994 1.0062203 1.0086018 0.9947384 0.99923706 0.995833 1.0038747 0.99783725
0.9995603 0.9965734 0.99918556 1.0004319 1.0024078 1.0040358 0.99696964 0.9988804
1.0077645 0.99780184 1.0012231 0.9947844 1.000987 0.9992865 1.0012916 1.0004727
1.0033555 0.99937487 0.9996563 0.9968569 0.9966996 1.0081452 0.99347174 1.0000774
1.0043937 1.0016223 1.0051184 0.99888575 0.99710006 1.0013491 1.0018215 0.9980811
1.00591 1.0054191 1.0008239 1.004326 1.0061561 1.0030749 1.0102515 1.0026743
00000000: cfe8 803f c633 7f3f 1f25 7f3f c838 813f
00000010: 69a8 803f 87d8 803f 2a02 7f3f d60f 803f
00000020: 3bd2 7f3f e43d 803f 156f 7f3f 8cbc 803f
00000030: 69b1 7e3f 4251 803f b3dc 803f 306e 803f
00000040: cd36 7f3f d4cb 803f dd19 813f 2da7 7e3f
00000050: 00ce 7f3f e9ee 7e3f f77e 803f 4372 7f3f
00000060: 2fe3 7f3f 6f1f 7f3f a0ca 7f3f 270e 803f
00000070: e64e 803f 3f84 803f 6739 7f3f a0b6 7f3f
00000080: 6dfe 803f f16f 7f3f 1428 803f 31aa 7e3f
00000090: 5820 803f 3dd1 7f3f 532a 803f 7d0f 803f
000000a0: f46d 803f 08d7 7f3f 7ae9 7f3f 0432 7f3f
000000b0: b427 7f3f e70a 813f 2a54 7e3f 8902 803f
000000c0: f98f 803f 2935 803f b8a7 803f fab6 7f3f
000000d0: f341 7f3f 352c 803f b03b 803f 3e82 7f3f
000000e0: a9c1 803f 93b1 803f ff1a 803f c18d 803f
000000f0: b9c9 803f c264 803f ec4f 813f a257 803f

batch_norm.bias f4 [64]
-0.000118877964 0.0008278394 -0.0029905187 0.002461614 0.003998544 0.0028420452 0.0029979402 0.002829484
5.195543e-07 -5.5031043e-05 -0.0036137507 -0.0030544475 -0.003014947 0.00203686 0.0016524668 0.0011137131
-0.0017681965 -0.0028989338 -0.0024343152 0.0016096826 0.0011298414 0.0023338017 0.003377523 -0.0005675422
0.0031629135 -0.0011532977 -0.00081372523 0.0019880848 -0.00019468101 -0.0011630099 -0.001831267 -0.0032139055
-0.00019770145 -0.0026285134 0.0045030587 -0.00046317783 0.0001375149 -0.0035670893 -0.0041393978 0.0026962354
-0.0029298754 -0.0014251741 -0.0017485216 -0.0033820174 -0.0060996935 -0.0031246834 -2.9211657e-05 -0.0026624294
0.004074258 -0.0013784389 0.004681807 0.002191948 -0.0053217006 -0.0010261182 -0.00058752345 0.00023336518
0.00034257752 0.0037783661 0.0036539433 0.002954888 -0.0032659587 -0.004794744 0.0026002412 0.0026993162
00000000: 1f4e f9b8 5d03 593a 94fc 43bb 0853 213b
00000010: 3806 833b 9b41 3a3b 1779 443b dd6e 393b
00000020: 8077 0b35 22d1 66b8 add4 6cbb 202d 48bb
00000030: 6b96 45bb d77c 053b 9697 d83a 03fa 913a
00000040: d4c2 e7ba 0afc 3dbb 0889 1fbb fcfb d23a
00000050: 3017 943a b2f2 183b 6f59 5d3b 1dc7 14ba
00000060: e248 4f3b 402a 97ba 2d50 55ba 874a 023b
00000070: 4923 4cb9 2370 98ba 2007 f0ba 63a0 52bb
00000080: 144e 4fb9 2343 2cbb 658e 933b add6 f2b9
00000090: e031 1039 d4c5 69bb c9a3 87bb 53b3 303b
000000a0: 2703 40bb e8cc baba a62e e5ba d6a4 5dbb
000000b0: f0df c7bb 7dc7 4cbb 8e0b f5b7 277c 2ebb
000000c0: 5a81 853b bcac b4ba d869 993b c9a6 0f3b
000000d0: a961 aebb d07e 86ba 0804 1aba 7db3 7439
000000e0: fa9b b339 779e 773b ff76 6f3b cba6 413b
000000f0: b209 56bb 3a1d 9dbb cf68 2a3b 03e7 303b

batch_norm.running_mean f4 [64]
-0.078603394 0.015487837 0.00015273556 0.069054835 0.1431606 -0.11561075 0.03275669 -0.106887415
-0.082097545 -0.06225734 -0.15552911 -0.093161784 -0.028652536 0.103589535 -0.2187661 0.1678559
-0.01922683 0.122880824 0.0030322617 0.014323289 0.25644922 0.057023596 -0.009547354 0.020976717
-0.029559359 0.08023516 0.04124881 0.1008435 -0.04734212 0.037259687 -0.021692788 -0.22845878
0.11041749 -0.013049294 -0.05203396 -0.05658024 0.20320417 0.15252356 -0.025246866 -0.025396176
-0.11462492 0.14341663 0.055731464 0.050596356 -0.081705265 0.093578845 0.000748611 0.06469903
-0.0737198 0.21019822 0.06150709 0.17107524 -0.013946512 -0.0034893246 -0.13565865 0.10138805
-0.043846466 0.13524023 -0.05976283 -0.110973634 -0.011431635 -0.22610505 0.013762066 0.06461163
00000000: d1fa a0bd b2c0 7d3c a427 2039 9f6c 8d3d
00000010: b198 123e 54c5 ecbd e12b 063d cae7 dabd
00000020: c222 a8bd 8d01 7fbd 0643 1fbe 9bcb bebd
00000030: b9b8 eabc c026 d43d 3804 60be 6be2 2b3e
00000040: 9681 9dbc f1a8 fb3d e9b8 463b 3aac 6a3c
00000050: 504d 833e 9391 693d 816c 1cbc 5dd7 ab3c
00000060: 7826 f2bc 5552 a43d 83f4 283d 0987 ce3d
00000070: d0e9 41bd 9d9d 183d 13b5 b1bc 19f1 69be
00000080: 9122 e23d b5cc 55bc 9021 55bd afc0 67bd
00000090: c114 503e 232f 1c3e 84d2 cebc a40b d0bc
000000a0: 78c0 eabd cfdb 123e ad46 643d 203e 4f3d
000000b0: 1755 a7bd 44a6 bf3d 6f3e 443a ed80 843d
000000c0: 68fa 96bd 343e 573e dcee 7b3d 592e 2f3e
000000d0: e97f 64bc 27ad 64bb 1aea 0abe 8aa4 cf3d
000000e0: 5a98 33bd 6a7c 0a3e dfc9 74bd 2546 e3bd
000000f0: c14b 3bbc 1588 67be 4a7a 613c 1a53 843d
