RNN/Model/LSTM_Model_0.pth (torch, 225100 bytes, 15 tensors)

lstm.weight_ih_l0 f4 [256, 9]
00000000: aa21 cf3d e0c2 43bd d9a8 c1bd 3ebd 8a3c
00000010: 3520 5abd bb6c b93c a7d5 1c3d a0d4 c83b
00000020: 25ef 843b 4cf9 243d c3c0 f8bc cc30 453c
00000030: 83ff 4c3d 213c d03d 26ff 793d f162 f8bc
00000040: da6d 643c dbeb 74bd 6207 4ebd d5f5 373d
00000050: 8195 b3bd 343d a03c 447d 113c 54fa 1ebd
00000060: 1bc1 43bd 2147 b43d 4689 a8bd 7e54 72bd
00000070: fac7 d53d 36c1 00bd 59b7 10bd ca99 efbd
00000080: 6eab 75bd bb11 55bd 1a7f 25bd d583 2abd
00000090: 6b42 de3d 8bfd 3e3d 2710 86bd 6ff8 ab3d
000000a0: 494b b5bd ef5e ae3c 393c a63d adca e33d
000000b0: 1319 babd 9f8e a53d d6d7 abbd e48f afbd
000000c0: 046b e43b 0948 a93d 893e 23bd 8673 d53d
000000d0: d5e1 d1bd a0c0 04be 6049 eabd a9c2 9abd
000000e0: f8be dc3c 5584 b2bc 790a 01be 208a 623d
000000f0: 469c dbbd b51c 02be f6d9 763c f3d9 f8bd
00000100: 7239 0cbe 00ab 88bb 7acc 873d d94c 03bc
00000110: 34c4 19bd b7fe 34bc 0697 153d 9967 bf3c
00000120: c58e e03d 73cc aebd 0a64 ddbd c0e2 293c
00000130: 2c5e 7e3c 9383 cc3d 5e2c adbd 8de6 e1bd
00000140: 6a06 adbd 1cb2 a73c 1bc1 f63d e265 69bd
00000150: 6da8 c1bc 380e 0f3d e0e6 803d 5b6d af3d
00000160: ade4 943d 6627 943d cb9d 8dbc ebbc 9c3c
00000170: c946 eb3d a6c3 54bd a2a1 733d 0476 7b3d
00000180: 7a6e df3d 1495 9cbc 8204 01be 68cf 483d
00000190: e4bf f63d 7ef1 a73c 222d be3d 224a e93d
000001a0: b702 de3d e4e5 ed3d 48d6 f8bd 0948 d13d
000001b0: a3cd 533d 648b 97bd 6963 f7bd cd7b 89bd
000001c0: 5693 f33d e790 fa3d 8ea4 f5bd 4afc fabd
000001d0: 9cd4 0e3d 5f00 643c 2d2d bc3d ade4 3b3d
000001e0: d8fc aa3d 6004 733d cbd9 d83c 0336 b2bc
000001f0: bb97 b13d 33bf 96bd 3f4a d43d 40f5 ed3d
00000200: fecb c43d fc40 febc 1f59 40bd da51 7dbd
00000210: c627 013d 922b adbd 4b54 b13d 4ec9 98bd
00000220: 327b 8a3d a3fd b83d feb6 473d cba3 863c
00000230: 5185 2b3d cfbb ae3d f4b2 a83d 454d ba3d
00000240: d10d bdbc 4f53 2bbd 8139 b4bd 0670 dfbd
00000250: 91d9 6abb b979 00bd c127 013e 62d5 1fba
00000260: 7e83 8d3d 485a 28bd cb65 4fbd 7361 783d
00000270: bf63 b33c ef17 c93d 2cd3 9dbc a5f7 2d3c
00000280: d873 d6bc ff04 f93d 6329 613d 59cb 89bd
00000290: 7cf2 a9bd a153 9cbd a26b e33d 98fd d4ba
000002a0: 37c0 78bd 7d52 94bc f6ff 90bd dcf3 bc3d
000002b0: c9c1 a3bd b662 9bbd b34f 8f3d 4659 49bd
000002c0: ccda e7bd e63c db3d 8830 b13d 7f86 bcbd
000002d0: 4263 1d3c 5973 0c3c ae04 c9bd 28f2 5b3d
000002e0: 84a7 cdbb e085 483c f0ff cd3d 47e3 aebd
000002f0: 776b d23d f950 cfbd 694a 833d d7f6 d83c
00000300: 5dfa a7bd 5ced d1bd b307 e1bd 1bd4 87bc
00000310: 3309 da3c 9e53 5fbd 61c8 90bd f533 e4bd
00000320: 72ff b3bd a9ef 8bbd 1a1e d03c 3725 51bd
00000330: 4933 ed3d a8e2 8d3c 96ab a23d 78a2 cebd
00000340: 898c 3ebd 7b56 1d3d 1a2e 873d 040a 5b3d
00000350: 4b58 27bd f54c e0bc e139 8c3c 0b22 a8bd
00000360: 0c1f f8bd 7023 d53d 9481 5ebc 52f0 c33d
00000370: 285d c63d 95e0 f83d 9cc2 853d f0ee 8a3d
00000380: d55e 0e3c 9a30 cdbd 07a4 023e 9f2c ca3d
00000390: 5abf f4bd 6e1c ff3d 2cb7 c63d ba84 923c
000003a0: 9b99 da3d e247 b43d a788 27bd 4ea9 fc3d
000003b0: cfb2 02bd ba90 ccbc eec7 e5bc a1a7 8d3d
000003c0: e4d6 a23d c6f4 083d 4d0a de3c 5b1d c0bd
000003d0: 5938 01bd 35e7 fabd 2348 723c f2ee eebb
000003e0: 55f0 9b3d 468a 663d aa42 4fbb 9d1b b3bc
000003f0: 52da 1f3c 4792 563d ba4c 553d f982 e33d
0.10113843 -0.04779327 -0.09456033 0.01693594 -0.05325337 0.022634855 0.038289692 0.0061288625
0.0040568286 0.04027681 -0.030365353 0.01203556 0.050048362 0.10167719 0.061034344 -0.030320616
0.013942206 -0.05979524 -0.05030001 0.044912178 -0.0876875 0.019560434 0.008879963 -0.03881295
-0.04779158 0.08802629 -0.08229308 -0.05916261 0.10438533 -0.03143426 -0.035331104 -0.11699255
-0.05997794 -0.052018862 -0.040404417 -0.04162963 0.10852512 0.046628516 -0.065460496 0.08396994
-0.0885225 0.021285502 0.08116955 0.11122642 -0.09086814 0.080838434 -0.08390777 -0.08572367
0.006970765 0.08265693 -0.03985456 0.10422425 -0.10248152 -0.12964106 -0.114397764 -0.0755666
0.02694653 -0.021791616 -0.12601651 0.055307508 -0.10723166 -0.12706263 0.015066614 -0.121509455
-0.13693789 -0.0041707754 0.06630798 -0.008013927 -0.03754063 -0.011047057 0.03652098 0.023364829
0.10964731 -0.08535089 -0.108100966 0.010369003 0.015525382 0.09986033 -0.08455728 -0.11030302
-0.08448489 0.020470671 0.12048551 -0.05698193 -0.023639882 0.03492567 0.06294036 0.0856578
0.07270179 0.07234077 -0.017287156 0.019133052 0.114881106 -0.051944397 0.059480317 0.061391845
0.109097436 -0.019114055 -0.12599376 0.049025923 0.12048319 0.020500895 0.09285952 0.11391093
0.108403616 0.11616114 -0.12150246 0.10218818 0.051709782 -0.073996335 -0.12079508 -0.06713066
0.118933365 0.12234669 -0.11994277 -0.122551516 0.03487073 0.013916104 0.09188304 0.04587238
0.08349007 0.059330344 0.02647104 -0.02175427 0.086715184 -0.07360687 0.10365724 0.11619043
0.09609221 -0.031036846 -0.046959992 -0.061845638 0.03153207 -0.08455576 0.08658656 -0.07460271
0.06761779 0.09032752 0.0487585 0.016435524 0.041875187 0.085319154 0.082372576 0.09096769
-0.023077877 -0.041827496 -0.088000305 -0.10910039 -0.0035835246 -0.031366084 0.12612821 -0.0006097165
0.06909846 -0.041101724 -0.050634187 0.06063981 0.021898149 0.09819018 -0.019265734 0.010618125
-0.026178285 0.12159156 0.05497111 -0.067282386 -0.08298203 -0.076331384 0.11104514 -0.0016249893
-0.060730185 -0.01810574 -0.07080071 0.092262 -0.07995946 -0.07587187 0.06997623 -0.049157403
-0.11321029 0.10704975 0.08651835 -0.092053406 0.009606184 0.008572423 -0.09815346 0.053697735
-0.006276073 0.01223895 0.10058582 -0.085394435 0.102744035 -0.10122866 0.06410677 0.02648489
-0.0820205 -0.10250351 -0.10987797 -0.016580632 0.026615715 -0.054523103 -0.07069469 -0.111427225
-0.08788957 -0.06832821 0.025404979 -0.05106088 0.115820475 0.017319992 0.07942884 -0.10089582
-0.046520744 0.038412552 0.0660059 0.05347635 -0.040855687 -0.027380446 0.017117443 -0.08209618
-0.12115297 0.1040715 -0.0135806985 0.09567322 0.09685737 0.121522106 0.065312594 0.06783855
0.008689602 -0.10019036 0.12757884 0.09871792 -0.1195056 0.124565944 0.09702906 0.017885555
0.10673829 0.08802773 -0.040901806 0.1233698 -0.031908806 -0.024971355 -0.028049435 0.06916738
0.079511434 0.03343656 0.027104521 -0.09380599 -0.031547878 -0.122511305 0.014787707 -0.007291668
0.07614199 0.05628421 -0.0031625428 -0.021863753 0.009756641 0.052385595 0.052075125 0.111089654

lstm.weight_hh_l0 f4 [256, 64]
00000000: 0cf6 7cbd b850 a13d 63c7 dfbd 045d 9e3d
00000010: 8ad3 3abc 19eb 013e 512f 4bbd 52ae 0abd
00000020: ab66 d33c 6ec3 e43b 5c09 cdbd 615b b9bd
00000030: 6e0e e33d 187a 0d3d 80e7 f83d fdd2 f83d
00000040: 114a 3c3d 82a2 3c3c 43df abbd 576b cb3d
00000050: 0e93 7c3c 7021 cb3d 7dea afbd ccea bbbd
00000060: 71ee eebc 0ffa 5ebd 372b 0abd a9d2 b53d
00000070: 597c bbbd 2859 7e3d 89c3 a33c 3898 ccbb
00000080: 4a15 c93d 479c 3ebd 525d 973d 0acb c93d
00000090: 1c76 75bc cd1b 26bd 10b8 9f3d e965 153d
000000a0: b663 d73c 2a23 47bd aaac aabd 82bf efbd
000000b0: c267 a5bd 43d9 a1bd 757d 16bd da44 8cbd
000000c0: bc77 683c 8e2f 09bc 5069 aebd 34d1 9ebd
000000d0: 52ad e8bd 9aa4 82bd 5921 efbb 3d9c d8bc
000000e0: 92b6 48bd e314 f33d e493 e73d ea33 e5bc
000000f0: d337 c7bd ea37 e4bc b1ac 9c3d 77c6 97bc
00000100: bf1a 9e3d 6818 bdbd e703 a5bc 5e0b 923b
00000110: ae90 3e3d 35d2 8d3d 3dfd 973d e5cd bbbd
00000120: 32ce 693d a0b1 de3c fb4a 45ba 679d f03d
00000130: aab0 2bbc 8ffa afbd 856b b7bc bd2c 8d3c
00000140: a0bf c63d 78eb 2dbd 5930 febd 255c 723d
00000150: bfe9 d8bd 20b0 0fbc ee2d b33d 4e8d ee3d
00000160: 3a44 74bd a947 0f3d f506 013e 41b4 eabc
00000170: 501a c7bc 44ef 7fbd 93d1 84bd 99c2 f6bd
00000180: 22b8 d23d 422a 32bd 65e7 f53d 9147 0f3d
00000190: 8282 84bc 5f6f c03d a11e 303d f017 fb3d
000001a0: c05a d43d c905 13bc b18b adbd 3d59 90bd
000001b0: 3d52 f83c dfb4 f53d 5e7b c93c 6733 c53c
000001c0: 9567 1f3d d2de b4bd 6bc5 663d 3e6e 063d
000001d0: 11ed be3d 8e9c 803c 2ec8 adbd e6e6 53bc
000001e0: 7c53 abbd ebf4 643d 6406 ad3d a7e5 00be
000001f0: 9abd 1f3c 2905 f73c a187 b53d 80f4 ddbd
00000200: 043c 85bc 1dee 22bc cb50 df3d 981b d4bd
00000210: d858 36bc a8f4 24bb fd52 b93d 5438 033d
00000220: 3f31 d33d d5da 863c 854d d53d 9f55 773d
00000230: c7b3 873d 1cdc d23d 2996 4f3d 2868 553d
00000240: 7bb3 953d 9f03 5cbd ae2c f63b c587 62bd
00000250: b334 6ebd 16f6 ed3c a8a4 95bd da39 8bbd
00000260: 2257 a4bd a449 af3d a6a6 56bd 8b09 043a
00000270: 410d 7e3d 546e b1bd f2dd c6bd f14e 22bd
00000280: dfa5 8f3d 4210 d23b 784a 69bd 5b92 d2bd
00000290: 6e3a 4c3d 8e5d 473d 6d22 95bd 3724 b63d
000002a0: bc88 b5bd fc75 b63c 9beb c03d c7c8 ed3c
000002b0: e62b 9abd 3fbc b2bd 8f85 64bc edd4 c33d
000002c0: 5c5e dc3d f9b1 d9bc d91e d93d 4a4f 2bbd
000002d0: ec3b cabd bb9e 82bd 9c36 e7bd 2d0d 373c
000002e0: 63b5 e0bd 5a34 073e 6a2c a4bd 1043 bcbd
000002f0: 8407 943d 3e11 7fbd a8ce 18bd 0150 9d3d
00000300: ac82 c73d 3b3a c3bc 24b5 19bd ad19 923d
00000310: 47e7 37bd f523 84bc 4d7b 9ebd 5f49 83bd
00000320: ffaa a5bd efc4 6fbd 92c7 713c d9ee 5bbd
00000330: 647f b13d 3d7a 903c deb9 8d3d 1ff2 f73d
00000340: 2fe5 d23d 90e1 023d bfdf 93bd 4a34 69bd
00000350: 9c03 4dbd 1041 ce3d fc2c 52bd d840 bbbd
00000360: 0c59 a93c 0008 8abd eb25 b6bd 5a24 e4bd
00000370: 4bfa 843d 4098 5ebd c0f8 663d 65f3 d63d
00000380: 0471 a63d 7281 7a3d e0e9 c93d ab04 aabd
00000390: d612 6b3d b140 983c dfa8 10bd deec 5e3d
000003a0: f508 7cbd 5e06 b8bc 09bb 89bd 59ea 7fbd
000003b0: effc 183c 4ea1 98bd 7d63 c23c 635a b23c
000003c0: 83e2 8c3d b61d cd3d 17f3 87bd 5a4b bdbd
000003d0: edff 9abd 3e21 7f3d 3606 df3c 14b9 8a3c
000003e0: 876b ec3d baff 36bd c37c 2a3d a9bd b63d
000003f0: 0d8c 46bc 47a6 cd3c a255 bb3d 2bbf cf3d
-0.061758086 0.07876724 -0.10926702 0.07732585 -0.011402974 0.12687339 -0.04960567 -0.03385765
0.025805792 0.006981305 -0.10011551 -0.09050632 0.110867366 0.034540266 0.1215353 0.12149618
0.045969073 0.011513354 -0.08392193 0.09932583 0.01541592 0.09918487 -0.08589647 -0.09175643
-0.029166432 -0.054437693 -0.03373262 0.08878071 -0.09154577 0.062096745 0.0199907 -0.006243732
0.09818514 -0.046535756 0.07390846 0.0985318 -0.014981773 -0.040553857 0.07798779 0.036474142
0.026292663 -0.04861752 -0.08333714 -0.11706449 -0.08076431 -0.079027675 -0.03674074 -0.0684907
0.014188703 -0.008373154 -0.085161805 -0.07754746 -0.11361183 -0.063790515 -0.0072976765 -0.026441688
-0.049002238 0.11869218 0.11307505 -0.027978856 -0.097274445 -0.027858693 0.07650126 -0.018527253
0.07719945 -0.09233171 -0.020143462 0.0044569215 0.046524696 0.069248594 0.07421348 -0.09170131
0.05708141 0.027184308 -0.00075261266 0.11748772 -0.010479132 -0.08592712 -0.022390136 0.017233247
0.09704518 -0.04246089 -0.12411565 0.059169907 -0.105914585 -0.008770019 0.08748995 0.116480455
-0.05963538 0.03498045 0.1260031 -0.028650405 -0.024304539 -0.06248404 -0.064852856 -0.12048835
0.10289027 -0.04349733 0.12007026 0.03498036 -0.016175512 0.09396242 0.04299796 0.12260425
0.10368872 -0.008973547 -0.0847391 -0.07048271 0.030312652 0.11997389 0.024594959 0.024072362
0.038917143 -0.08831562 0.056340616 0.03281998 0.093225606 0.015699651 -0.08485447 -0.012933468
-0.08365533 0.055897634 0.084484845 -0.12587605 0.009749794 0.030153828 0.0886376 -0.1083765
-0.01626397 -0.009944466 0.10904082 -0.103568256 -0.01112958 -0.002517024 0.09049032 0.03203614
0.10312127 0.01646177 0.10415176 0.06038439 0.06626087 0.10295889 0.050680313 0.052101284
0.07309624 -0.05371439 0.0075126505 -0.05530526 -0.058155727 0.029048007 -0.07306796 -0.06798144
-0.08024432 0.08558968 -0.052405022 0.00050368224 0.06202436 -0.086636215 -0.097103015 -0.039626066
0.07014059 0.0064106295 -0.056955785 -0.10281821 0.04986041 0.048673205 -0.07281957 0.08893626
-0.08863971 0.022273056 0.09419938 0.029026402 -0.07527904 -0.08727311 -0.0139478585 0.09562097
0.10760185 -0.026574122 0.10601587 -0.041823663 -0.098747104 -0.06377932 -0.11289713 0.011172575
-0.10972097 0.13203564 -0.08016284 -0.09192479 0.07227996 -0.062272303 -0.037306458 0.07681275
0.097417206 -0.023831477 -0.037526265 0.071338035 -0.044898298 -0.016130427 -0.077383615 -0.06410479
-0.080892555 -0.05853742 0.014757054 -0.05369458 0.08666876 0.017636413 0.06920217 0.12106728
0.102976196 0.031953394 -0.072204106 -0.056934632 -0.05005227 0.100710034 -0.05131243 -0.09143227
0.020672344 -0.06739807 -0.08893951 -0.11139746 0.06493052 -0.054344416 0.05638957 0.104956426
0.08127025 0.061158605 0.09859061 -0.083016716 0.05739101 0.018585535 -0.035317298 0.054425113
-0.06153198 -0.022463974 -0.06725127 -0.06247935 0.009337648 -0.074526414 0.02372908 0.021771615
0.06879141 0.100154325 -0.066381626 -0.09242888 -0.07568345 0.06228756 0.027224641 0.016933955
0.11543947 -0.044677474 0.04162289 0.089228936 -0.012118352 0.025103701 0.091471925 0.10143884

lstm.bias_ih_l0 f4 [256]
00000000: 2575 a83d 94cf d7bd 0222 cf3d de2b c83d
00000010: 5c08 36bd b1b6 e53c a014 e73d 9a02 c63d
00000020: 8cce e8bd fba0 0d3d 63de d43d ec54 963d
00000030: 8b75 ac3d a168 aabd 209c 87bd ba28 41bd
00000040: 889f 2c3d fa10 a5bc 0bfb a5bd e6f9 b9bc
00000050: 0146 abbb 898c d7bd f896 c13d 4a29 d8bd
00000060: 397e 3e3d 1734 673d 59bb 56bd 8b2e d4bd
00000070: ca93 c43c d2da d7bc 6b28 1f3d 0d6e cbbc
00000080: 896e 82bd cb48 a6bc 250b da3d f3ae 0bbd
00000090: 690f c7bd c5a0 cbbd 9b57 06bc ddf5 b6bd
000000a0: d276 82bd 9796 c63d 6e7d d93d d885 e5bd
000000b0: a49c 9fbd 5cbb 2fbc d327 6bbd 3e4a e5bd
000000c0: 408a 70bd 2d7c a9bd c74f 2d3d 2f18 e73d
000000d0: f093 ecbd 5320 d23d 58dc 43bd bec4 2f3d
000000e0: ec56 d13c 39ce 9f3c ce4e e9bd 4fad 223b
000000f0: 0bad 213c 47df c53d b188 efbd d32c c9bd
00000100: e46f cfbd a13c 46bd e1d4 533d f47c 9fbc
00000110: 5bfe 8d3d 8965 75bd 7167 f0bd 62a5 acbd
00000120: 53a8 803d a378 7dbd c16e 893d b95f e63d
00000130: b22a 773d fd44 013e ad4b 95bd 0a4a 15bd
00000140: f044 863c 5ec2 bfbd e7a6 483d 1546 663d
00000150: 7cfd dc3c 2745 043e a256 943d 76e8 8e3d
00000160: c62d e2bb 3194 f5bc 1acf c1bd 6f6a 413d
00000170: 1fdd dd3d a53e d93c 9eff c53d 21dd 36ba
00000180: c6dc 23bd 5e96 503d 1f80 d1bd a3f7 bf3d
00000190: 5498 95bd 6e49 48bd adee 1cbd a895 053c
000001a0: bb55 dbbd 35b0 a63d b4ca d03c d42a a1bd
000001b0: 45d3 dabd 47ce f53d ebc9 8abd d663 413d
000001c0: 750d a7bd 4aa5 81bd 4499 69bd dd1b b7bc
000001d0: ba9c 3c3c 3812 d2bb cea2 98bb 2891 d23d
000001e0: ffb0 fd3d 2314 7bbd 13ca 963d 3442 c83c
000001f0: 4c4a 46bb 616e 2ebd b626 d93c 0268 8b3b
00000200: 7ade 49bc 5eda 6d3d df5b 923c 3a4d a1ba
00000210: d8cf f53d 5190 793d d8a8 a63d a6f7 ab3d
00000220: 7454 ddbd 8e6f 3d3c 3db3 c7bc 7116 ee3d
00000230: aa88 6b3d 7bc5 20bd b1d6 cebc 019f 873c
00000240: be92 82bd 3040 d03c 4be0 96bd d470 b8bd
00000250: 86bb b33d 29e6 c0bc ffe9 b23d 55e5 14bd
00000260: 147b 8b3d c80e e0bd 5b3c 9abc e5dd f93d
00000270: 5d20 fd3d 0cae 1dbd 32d1 4c3d ee80 7e3d
00000280: 1503 aeba f86d 3f3d 24b2 8ebd 2cc8 1fbd
00000290: 9aeb 8a3d e618 d23d a040 ae3d e73a d8bd
000002a0: ec20 dd3d 1718 f03d eef3 a43d 632f f5bd
000002b0: 72f9 693d 1d10 9dbd 1bed 503d 7cfc ac3d
000002c0: 8956 bfbd 6f4c 143d 459f f93d bbc2 babc
000002d0: 6a90 5e3d f4c4 bb3d 514e 99bd b65f 31bd
000002e0: bc45 96bd d33a 3e3c 5ff4 eb3d 606c d03c
000002f0: f2e5 fe3d 5675 913d 66cc 89bd e100 93bd
00000300: 745c bebd 5d55 043d 2a9b 213c 36ec 4e3d
00000310: 26bb 1e3d ecdf 3d3d d7c0 b73d faa9 a73d
00000320: 9ee7 b8bd 6633 da3c d14b 7dbc 5cb9 04bd
00000330: 25e7 ab3d 1899 8b3d 57aa 5bbd 292a cb3d
00000340: 6af5 923d a014 f43d 3220 933d cf9d d8bd
00000350: 19fc 9b3d 660a 203d aa94 91bc 83df ebbd
00000360: b5a7 4c3d f6e0 2d3d 7aed 9d3d be40 62bd
00000370: 235f 9cbd b946 933d 0363 b3bc 133e 85bd
00000380: 3fa7 e23d e3f6 9d3c 9f3c 87bd eecd 4f3d
00000390: 0664 e03b 7c42 ebbc 33fe 3c3c 5a91 e93c
000003a0: 0cc3 7c3d f0c2 d63d 3eb6 dbbd ae4d 893d
000003b0: 65bc 2c3d 767c 523d 136c b8bd e6a9 003d
000003c0: a16a e0bd be0f a5b8 21b9 69bd 8b6c adbd
000003d0: e85b 9f3d 3bcf f4bb 2a12 873d d5bc 17bd
000003e0: 3382 36bd 4429 01bd a000 433c d761 6038
000003f0: 3be2 503c e556 24bd fea8 22bc a9cf ee3d
0.082254685 -0.10537639 0.10113908 0.09773992 -0.044441566 0.028041216 0.11283231 0.09668465
-0.11367521 0.03457735 0.103939794 0.07340416 0.08420857 -0.08320738 -0.06621575 -0.04715798
0.04214433 -0.020149697 -0.08104523 -0.022702169 -0.005226851 -0.10524852 0.09452623 -0.1055475
0.046507094 0.05644616 -0.052424762 -0.1036044 0.023996253 -0.026349459 0.038856905 -0.02483275
-0.06368739 -0.020298382 0.10646657 -0.03410239 -0.09719736 -0.09942774 -0.008199598 -0.089336134
-0.063703194 0.096966915 0.10619627 -0.11207169 -0.07793549 -0.010725822 -0.057411026 -0.11195801
-0.058725595 -0.08275638 0.04231241 0.112839095 -0.11551654 0.102600716 -0.047817558 0.042912237
0.025554143 0.019507514 -0.11391984 0.0024822538 0.009867917 0.096617274 -0.11695994 -0.09823003
-0.10128763 -0.048397664 0.05171669 -0.019468762 0.0693328 -0.059911285 -0.1173848 -0.08429982
0.06282105 -0.061882626 0.06710578 0.112487264 0.06034345 0.12623973 -0.07289825 -0.036447562
0.016390294 -0.093632445 0.048987295 0.05621918 0.02697634 0.12917005 0.072430864 0.06977932
-0.0069024293 -0.02997789 -0.094633296 0.047220644 0.10833191 0.026519129 0.09667896 -0.00069757
-0.040005468 0.05092465 -0.10229515 0.09373405 -0.07304445 -0.048898153 -0.038313556 0.008153357
-0.10709711 0.081390776 0.025487281 -0.07869497 -0.10684828 0.12002235 -0.06776794 0.04721435
-0.081568636 -0.063303545 -0.05703093 -0.022352153 0.011511976 -0.0064108633 -0.0046580797 0.102815926
0.12387275 -0.0612985 0.07362761 0.02444563 -0.0030256687 -0.042585734 0.026507717 0.004254342
-0.012321109 0.05806958 0.017866073 -0.001230634 0.12002534 0.060928646 0.08137673 0.083968446
-0.10807124 0.011562241 -0.02437746 0.11625374 0.05750338 -0.039250832 -0.025248857 0.016555311
-0.06375645 0.025421232 -0.07366999 -0.09005895 0.08776002 -0.023547249 0.087360375 -0.03635152
0.06810585 -0.10940319 -0.018827608 0.12200526 0.123596884 -0.038496062 0.05000419 0.062134676
-0.0013276065 0.046735734 -0.069675714 -0.03900926 0.06783219 0.10258655 0.0850842 -0.1055811
0.10797295 0.11723345 0.080543384 -0.11971929 0.057122655 -0.07669089 0.05100737 0.08446595
-0.09342677 0.036205705 0.121885814 -0.022797933 0.054336943 0.09168425 -0.07485641 -0.043304168
-0.073375195 0.0116107045 0.115212195 0.025442302 0.12446202 0.07102458 -0.06728439 -0.07177902
-0.09294978 0.03230797 0.009863654 0.050518237 0.038752697 0.046356127 0.08972328 0.08186717
-0.090285525 0.026635837 -0.015459971 -0.032403335 0.08393697 0.0681631 -0.053629246 0.09920151
0.07175715 0.119179964 0.07183875 -0.105769746 0.07616443 0.039072417 -0.017771084 -0.11517241
0.049964625 0.042450868 0.07711311 -0.055237524 -0.076353334 0.07191224 -0.021897798 -0.0650598
0.11067056 0.019282764 -0.066033594 0.0507335 0.006847861 -0.028718226 0.011535215 0.028511692
0.06170945 0.104864 -0.10728119 0.06704269 0.042171855 0.051388226 -0.090049885 0.031412028
-0.10957838 -7.870745e-05 -0.05706132 -0.084679686 0.077812016 -0.007470993 0.065952614 -0.03704532
-0.04455776 -0.031533495 0.0119020045 5.3496882e-05 0.01274925 -0.04012193 -0.009927986 0.11660702

lstm.bias_hh_l0 f4 [256]
00000000: 27c9 f1bd ec3a ca3c 9452 53bd 304a ef3b
00000010: 214c 403d 0d09 ad3b 6e6f 98bd c646 ed3d
00000020: 0321 febd 0133 073e f552 c1bd 7a3d 67bd
00000030: 98f0 15bd f6a9 fb3c 8dbe 62bb a025 d13d
00000040: f6b6 2dbc 1da0 2ebd ff66 66bc 1d70 e6bd
00000050: 8177 a1bc edb2 943c b8c2 bcbd a8b8 14bd
00000060: a3ba e2bd 6912 11bd afbd 0e3d 4163 34bd
00000070: 61d2 4b3d d920 693d 82b6 dcbd 6bf7 9c3d
00000080: 47a2 1ebc 26f3 9d3d a6d2 41bd 2622 b83d
00000090: 82ae 8e3d 30c2 093d 4d84 953d cfdd b83d
000000a0: 94fb c93d efe8 003e dec6 6dbc 7046 b13d
000000b0: fa17 babd b955 87bd d413 a83d 0480 ec3d
000000c0: 650b cc3d 48ed 5c3d e82f 9cbd 87e9 a2bd
000000d0: a6ce d03c 5df6 683d 3e06 55bc 6300 c73c
000000e0: 6501 e5bb 8e70 88bc 7719 debd 919e 113d
000000f0: dd96 bbbd b7a1 e0bc dfeb 00bd 5ba1 fa3d
00000100: d738 e1bc 7ad0 c43d 9ba0 7dbd c13b f4bd
00000110: 9215 873c 3844 053c ef68 e03d 5b19 0b3c
00000120: 0153 e53d ae9d 90bd 9997 66bd 2e4c 803d
00000130: d2b8 6ebd 0d69 ebbd fac7 433b f524 f6ba
00000140: 33e7 813d 7e2a 1b3d a996 813d 5d8d dabc
00000150: 33f9 e5bd 279c e1bd 399f f73c 7607 8bbd
00000160: 69e6 edbc dcc6 b0bd 67bc 033d 558e b23d
00000170: 28b7 8bbc ba6a dcbd 4b74 5abc 4b1a a63d
00000180: 21eb a1bc 5acf 3abd 1205 8c3d 9a3d d73c
00000190: 1431 f4bd 83d0 ed3c ccab 8c3d 8b02 a1bd
000001a0: 63e4 f4bc 8a37 f63d 36bd f03c 5752 57bd
000001b0: 1fd9 643c f515 583d fa9f 403c 1bfc cdbc
000001c0: 05fd 86ba 46a0 f3bd 49e7 2bbd 53fa ab3d
000001d0: 4bba d13d ab91 fd3d 09d0 783d 4466 d13c
000001e0: 123d b13c 3914 90bd a43d ff3d 498d 90bc
000001f0: 4285 c43d 2c78 e03d 84f8 17bd 352d fd3d
00000200: 0883 b33d 8815 bebd d01c 84bd cd16 83bd
00000210: 9b69 58bd 18a1 4a3b 3089 90bd bcb6 27bd
00000220: 4e93 cb3d cf3a b43d 4081 e73d 691d 02bd
00000230: 1015 c4bd 2fca 363d 6515 f33d a3fe 40bd
00000240: 8f95 05bd 21f4 03be bfeb a4bd b489 b73c
00000250: 413b 86bd ba17 9b3d 3e3a ee3d 9d45 92bb
00000260: 4e40 8f3d d270 05bc a209 89bd f784 87bd
00000270: fcba f6bc 6832 44bd 0ec2 113d 55c1 693d
00000280: 527f 49bd 5e66 c23c 295a fa3c 4d09 803b
00000290: 341f 83bd ebaf a0bc d4a9 cb3d 2c0f 2e3d
000002a0: 7424 dcbd 5595 87bd 7249 e63d 5cfc 873d
000002b0: d124 babb 65c5 933d 307d 1a3c dd98 dcbc
000002c0: 4562 f03d 0f57 103d 8348 4dbc 1638 b4bd
000002d0: fb98 81ba 3ba0 013e cf81 29bd 8272 b43d
000002e0: 926d 7ebd 6cf5 233d a01d 6bbd e3ff 4f3d
000002f0: 43be b63d fc8f d13d 8611 603b eb46 1f3d
00000300: 3517 5cbd ae78 af3d 58f1 983d 0527 dfbd
00000310: 4157 863d d095 d13d 093e e2bd ddd5 4bbd
00000320: 8d1a 15bd d25b 64bc 924c f4bd 30bf d5bd
00000330: cde1 743c 0437 013d 63ab 82bd 6fad ecbc
00000340: f40c 25bd 36ee ddbd c196 51bd eb71 dfbd
00000350: ceae 01bd a52a 4e3d 7265 f43b 0e1e 043e
00000360: 5285 02be 42f0 683d 3468 8f3d 07c0 e7bd
00000370: 826b 4d3c a798 9bbd 46b5 76ba 4162 b33c
00000380: e54a 01be d0ab 4b3d 6d5c 303d e6ef 2a3d
00000390: 5646 f73d c285 9bbd 4a39 a13d 8354 88bd
000003a0: ec2e 9a3c a7bb 12bd 3ad5 1e3d ee7b 763d
000003b0: c831 b43d 92e7 d03d 4b63 92bd 3344 5d3c
000003c0: c798 923d 52d2 37bd 825a 493d 091a 303d
000003d0: d479 afbd a68c df3d fdac 713d 396d 7bbc
000003e0: 4f65 053b 66b5 d33d 2aff 3a3d 45f4 503d
000003f0: e3b9 debd 5ee6 da3d 8246 b7bd 7bba 4abd
-0.11805945 0.0246863 -0.051592425 0.007302545 0.046947602 0.00528062 -0.074431285 0.115857646
-0.1240864 0.1320305 -0.09439651 -0.056455113 -0.0366064 0.030720692 -0.003459844 0.102122545
-0.010602703 -0.042633165 -0.014062642 -0.11251853 -0.019710304 0.018151725 -0.09216827 -0.036308914
-0.110707544 -0.035417948 0.034848865 -0.04403997 0.04976118 0.05691609 -0.10776998 0.07664379
-0.009682245 0.077123925 -0.04732003 0.08990888 0.069668785 0.033632457 0.07300625 0.09026682
0.09862438 0.12588857 -0.014512746 0.08656013 -0.090866044 -0.06608147 0.08206907 0.115478545
0.09963111 0.053937227 -0.07626325 -0.07954698 0.025489163 0.056875575 -0.013001977 0.024292177
-0.0069886916 -0.016655233 -0.10844701 0.03555161 -0.09159634 -0.027420862 -0.031474944 0.12237807
-0.027492924 0.09610076 -0.061920743 -0.1192546 0.016489778 0.00813394 0.109575145 0.008489932
0.11197472 -0.07061325 -0.05629692 0.0626453 -0.058281727 -0.11494646 0.0029873834 -0.0018779325
0.06342926 0.03788232 0.06327564 -0.026678735 -0.112291716 -0.11016112 0.03022729 -0.067885324
-0.029040532 -0.086316794 0.032162096 0.08718554 -0.01705511 -0.10762544 -0.0133333905 0.08110484
-0.019765439 -0.045607902 0.068369046 0.026274491 -0.119234234 0.02903009 0.06868705 -0.07861813
-0.02989406 0.12022312 0.029387098 -0.05256876 0.013967781 0.052755315 0.011756891 -0.025144627
-0.0010298794 -0.11895804 -0.041968618 0.08397355 0.10240611 0.123812996 0.060745273 0.02556146
0.021635566 -0.07035107 0.12462929 -0.017645495 0.095957294 0.10960421 -0.037102237 0.12362138
0.087652266 -0.092814505 -0.06450808 -0.06400833 -0.05283509 0.0030918773 -0.070574164 -0.040945753
0.099402055 0.08800279 0.11303949 -0.03176633 -0.0957433 0.04462641 0.11869315 -0.04711784
-0.032613333 -0.12886097 -0.080527775 0.02240453 -0.065542705 0.07572885 0.116322026 -0.004463865
0.06994687 -0.008144574 -0.066912904 -0.06617158 -0.030118458 -0.047899634 0.035585456 0.05706914
-0.049193688 0.023730453 0.03056057 0.0039073587 -0.06402436 -0.019615134 0.099445015 0.042494938
-0.107491404 -0.0662028 0.11244477 0.066399306 -0.0056806584 0.072153844 0.009429261 -0.02692836
0.117374934 0.035239276 -0.012529495 -0.0879976 -0.0009887511 0.1265878 -0.04138356 0.08810903
-0.062116213 0.040028974 -0.0574013 0.050781142 0.08923008 0.10232541 0.0034190132 0.038885992
-0.05373307 0.0856794 0.07467908 -0.10896114 0.06559611 0.102336526 -0.110469885 -0.049764503
-0.036402274 -0.013937907 -0.11928667 -0.10436857 0.014946413 0.031546608 -0.06380346 -0.028891293
-0.040295556 -0.10836451 -0.05116916 -0.109104 -0.031660847 0.050333638 0.0074583823 0.1290209
-0.1274617 0.056869753 0.07002297 -0.11315923 0.012537839 -0.075974755 -0.0009411167 0.021897437
-0.12626226 0.0497244 0.043056894 0.04173269 0.120739624 -0.07593872 0.07872255 -0.06656744
0.018821202 -0.03582349 0.038777567 0.060176782 0.087985575 0.102004185 -0.07147845 0.0135050295
0.07158046 -0.04487831 0.04915858 0.04299358 -0.08568159 0.109154984 0.059002865 -0.015345865
0.0020354574 0.103373334 0.0456535 0.051014204 -0.10875299 0.1068847 -0.08948995 -0.049494248

lstm.weight_ih_l1 f4 [256, 64]
00000000: 5ce1 6bbd efe2 ecbd d68b 01bd 2c81 97bd
00000010: 40ec e3bd 988f c3bc 1f40 bf3d 6da3 013e
00000020: 96cf c5bd 29c2 be3d 3d19 ca3c 073a ba3d
00000030: 5d1d 81bd 7a98 b33d b798 d63d 1adb 8c3d
00000040: a594 fa3d 1dc3 d93d 2df7 dfbc af5c 05bd
00000050: 4867 833d a810 913d 6655 c53d de35 95bc
00000060: f566 d9bd 45dc fdbd cb85 8b3d 90bc 0e3d
00000070: 2977 9dbd daf2 803d ca82 aabc e450 31bb
00000080: 6641 f83d 6950 bbbd 9073 433b 6813 523c
00000090: 1e94 84bd b204 fdbd d3e4 963d ade2 8f3d
000000a0: 4f6b b83d fae0 2fbd cbc9 af3d ac00 7e3c
000000b0: 47cc d53d 427b 513d 8757 e33d a428 05bd
000000c0: f58c 783d 5aa8 703c 433e 603d 27c2 c2bd
000000d0: 546a 5b3d 3559 e2bd 6261 d53d b6d3 5d3b
000000e0: f908 21bd 7cfd 0b3d 5436 913d 8687 ed3c
000000f0: 6f34 833a 4787 c5bd 0f5f db3d 0b8a 38bd
00000100: e052 08bd dc34 86bd 118f b13d b473 453d
00000110: fcdc 823d 8675 7cbd 6c83 a2bd fa07 273d
00000120: fd89 913c d10e 253d f0b8 983d fb40 60bd
00000130: eb56 943c 2bb8 f53d 15a5 233d 1312 b1bc
00000140: 36a7 c63d 60bd d83d 2c31 66bd d508 7c3c
00000150: a3a1 993d 7db6 c1bc 2fa3 eabd 5856 883d
00000160: 8bbc f1bd 5564 89bd 6890 ec3d b028 ccbd
00000170: 49bf 2a3d 7163 9d3d 9030 7bbd 28df 643d
00000180: 996e 22bd cc3d a7bd 95fb c93d ad1d a2bd
00000190: d656 0f3c b6ca a53d 275a a73d dbf2 8c3d
000001a0: 9342 653d 3b52 5dbd 53d3 0e3c dd96 c6bc
000001b0: acf4 72bd 37c5 c43d 1551 a6bd 8a57 b9bb
000001c0: 0ef1 bbbd 3bb2 b1bc 2101 ef3d 3e33 dfbd
000001d0: 0cf1 23bd 4312 df3d dd31 c0bd 66fe cb3d
000001e0: 2ea7 413d f736 ccbd 9f70 fdbd fab5 36bb
000001f0: 3e8f 6c3d e918 93bd 0555 e43d 2ca2 243d
00000200: ea54 b23d c4db a5bd 59f5 1cbc 3ebf c1bd
00000210: 3b03 cf3d 3ad8 c53c 64d6 c7bb 112e 6fbd
00000220: ee16 9b3d 3717 a6bd a392 aabb 640a 6cbd
00000230: 7b2e 02bc fba1 d4bd 7784 ee3d 3ab6 d53d
00000240: cf56 413d 029a 02bd fc13 cf3c ebd8 2e3d
00000250: c623 813d dc81 743d af93 933d ca7e b2bd
00000260: 4276 e8bc 0ac9 9abd 7cae a23d 2012 a23b
00000270: 67e6 04bd a052 01bd 3178 a0bd 62fa f33c
00000280: 19df 6a3d afe1 c1bd 930b 093d 1b92 5cbd
00000290: 9112 873d 745f 01ba 8218 233d b2ba 91bc
000002a0: 46e7 46bb 1214 3f3c d877 913d 4ba7 c0bd
000002b0: 3dd8 c5bd 3fbd 88bd f255 713c 836b ef3d
000002c0: cd3c 653d 8dd2 1bbd c69c 86bc 7b54 003e
000002d0: 79be 323c e44c bdbd 0533 f1bd c7c3 a63d
000002e0: 416a 7e3d ecc7 d03b 7882 443c edeb a33c
000002f0: ec7a f83b 55b9 77bd 4d51 ecbd 1250 dc3d
00000300: 101e d43d 3762 a73d 2d2e ecbd 8d22 953d
00000310: a780 2dbd 7f11 ecbd 1a11 e43d 91df 7c3c
00000320: f3f5 3fbd 7d37 e3bd 0449 a3bd 65b3 b93d
00000330: edc1 92bd d0eb 953d ed10 3abd 821d d63c
00000340: 012e f0bd b551 f2bd 270e 08bd 61b6 41bd
00000350: 1e6f 15bd b3e8 c6bd 7c4d 1d3d 06d3 d2bd
00000360: 722f 7d3d 82da 803d 2555 06bd 0372 66bc
00000370: 047d d0bc 3dfb c2bd c277 b9bd 7df9 b5bd
00000380: 20b2 03bd de57 dc3d 0d54 1f3c 904d ea3d
00000390: f17f b5bd dc30 78bd 0981 b1bd 68bf 05bd
000003a0: 9ee7 93bd 7173 10bd 97db babd 77ec f53d
000003b0: 2099 b93d 3748 953d 10f7 29bd f3ad aa3d
000003c0: ed1a c9bd 8f41 773d e67a efbd 31c0 ac3c
000003d0: 654c 1dbd d223 5d3d 4043 d63d 5d7c 69bd
000003e0: 6d75 0abd 5e4f a63d c274 453d a865 f4bc
000003f0: 858c b4bd 2c72 8cbd e38a dcbd adb8 86bc
-0.057587966 -0.11566722 -0.0316275 -0.073976845 -0.111290455 -0.023872182 0.09338402 0.12659998
-0.096587345 0.09314377 0.024670238 0.09093099 -0.06304429 0.08769317 0.10478347 0.06877728
0.12235383 0.10632918 -0.027339542 -0.032559093 0.06416184 0.07083255 0.09635429 -0.018214162
-0.106153406 -0.12395529 0.06812628 0.034847796 -0.076887436 0.0629632 -0.020814318 -0.0027056271
0.12121849 -0.091461964 0.002982352 0.01282201 -0.064735636 -0.12354411 0.073678635 0.07025657
0.090048425 -0.042939164 0.08583411 0.01550309 0.104393534 0.05114294 0.11100679 -0.03250946
0.060681302 0.014688576 0.054746877 -0.09509688 0.0535682 -0.11052171 0.10418965 0.0033848113
-0.039315198 0.03417729 0.070904404 0.028995287 0.0010010133 -0.09644943 0.1071149 -0.045053523
-0.03328216 -0.06553051 0.08669866 0.048206046 0.06389806 -0.061635517 -0.07935223 0.04077909
0.017765993 0.040297333 0.07457149 -0.05474947 0.018107852 0.11998018 0.039952356 -0.021615064
0.09699862 0.105829954 -0.056199238 0.015382965 0.07501533 -0.023646588 -0.11456906 0.06657094
-0.1180354 -0.0670859 0.11550981 -0.09968698 0.04168633 0.076849826 -0.06132561 0.05587688
-0.039656255 -0.08166084 0.098624386 -0.079158165 0.008748731 0.08095305 0.08171492 0.068822585
0.055971693 -0.0540335 0.008717376 -0.02424186 -0.05931537 0.09607928 -0.08120934 -0.0056561874
-0.09176837 -0.021691432 0.11670137 -0.108984455 -0.040024802 0.10892155 -0.09384511 0.09960632
0.047278576 -0.09971421 -0.123749964 -0.0027879463 0.057753794 -0.071824856 0.11149029 0.04019372
0.08707602 -0.080985576 -0.00957998 -0.09460305 0.10108038 0.024150956 -0.0060985554 -0.05839354
0.07572733 -0.08109897 -0.0052054687 -0.057627097 -0.007945652 -0.10382458 0.116463594 0.104351476
0.047201928 -0.031885155 0.025278084 0.042687338 0.06305651 0.059694156 0.07205903 -0.08715589
-0.028376702 -0.075578764 0.079434365 0.0049460083 -0.03244629 -0.031572938 -0.07835425 0.029782478
0.05734167 -0.09466874 0.033458304 -0.053850275 0.06595338 -0.0004935183 0.039818294 -0.017789219
-0.0030350252 0.0116625 0.071029365 -0.094069086 -0.09660385 -0.06676721 0.014729964 0.11690428
0.055966187 -0.038042594 -0.016432177 0.12532227 0.01090967 -0.09243181 -0.11777309 0.0814281
0.06211305 0.006371489 0.011993997 0.02000996 0.007583013 -0.06047948 -0.115389444 0.1075746
0.103572965 0.0817303 -0.11532245 0.07281981 -0.04235902 -0.115267746 0.11136074 0.015434162
-0.046865415 -0.11094568 -0.07972911 0.0906742 -0.07165895 0.07320368 -0.045426298 0.026137117
-0.117275245 -0.11831991 -0.03321662 -0.04729307 -0.036482923 -0.097123526 0.038403973 -0.10294156
0.061812826 0.06291677 -0.032796044 -0.014065268 -0.025450237 -0.09520576 -0.09056045 -0.08885477
-0.032152295 0.10758947 0.009724629 0.11440575 -0.088622935 -0.06059347 -0.0866719 -0.032653242
-0.07221912 -0.035266344 -0.09123915 0.12007993 0.090624094 0.072891645 -0.041495383 0.083339594
-0.09819589 0.060365256 -0.11693363 0.021087738 -0.038402934 0.05398924 0.10462046 -0.057003368
-0.033803392 0.08120607 0.048207052 -0.02983363 -0.088158645 -0.06857714 -0.10768678 -0.016445482

lstm.weight_hh_l1 f4 [256, 64]
00000000: d04d c7bd 2bce 4f3a d787 253c b428 af3d
00000010: bc21 b63d 8265 af3d f0a0 af3d 5d26 27bd
00000020: 06e7 22bd f352 803d 9c00 cf3c 8b22 f0bd
00000030: 8611 ed3d 5a41 e6bd 1332 cabd 5b58 c43d
00000040: 3465 333d 08ab 823d 9ed1 7fbd 46e0 d23d
00000050: 14c7 e63c 2773 b03d a617 4b3c 546e 263c
00000060: b4ed b7bd 37c6 0a3d 114c be3d d2a7 8abc
00000070: 6f28 5dbd 7379 ccbd c876 90bc d714 003e
00000080: 4f69 eb3d 19b9 fc3d aedf 863a cee4 d4bd
00000090: 6c5e 383d 28ff b2bd 4186 82bb e320 cebc
000000a0: 2ec6 c33d f8d2 c53d ffbd 5a3d 6f9d 173d
000000b0: 004f b2bd 5258 babd 24cd 58bd 7eca 983c
000000c0: b041 eabd 1ee3 943c 9fcd c53d ffa8 fb3d
000000d0: 8612 9c3b 1ba9 fd3d 35d1 c73d 007d a03d
000000e0: 21fd bfbd de55 de3d 3bf7 973d 702f 35ba
000000f0: 616c ebbd 1d36 d8bd e026 b9bd 9753 043e
00000100: 9f0b bb3d 89da 923c 633d e0bd 6ef2 ae3d
00000110: 407d 89bc 8974 283d 029a bf3c 66ec 45bd
00000120: 3c3d e33d b68d d5bd 523c 703d 4f7b 873c
00000130: 3f20 b73d 165c d53c e87b df3d c39d bfbd
00000140: 7510 19bd f392 fe3d 5414 fe3c fee4 953d
00000150: 9116 883d d86e 20bd 65fd eb3d e0a2 1f3c
00000160: 0fe3 453d d8ba 303d deaf 06bd 3ac9 6fbd
00000170: b16f a0bd 7950 d23d 629a 8ebc 1a17 4f3c
00000180: 5820 bdbc 3eca bbbd 3728 b43d f974 b0bc
00000190: bce1 56bb 2011 c6bd a2b2 13bd 57a4 b3bd
000001a0: 3cd4 653d 21e8 48bd 4f13 8dbd 414c d53c
000001b0: 6e3a f73c fbc0 d8bd 25fe 5c3d 401d 89bc
000001c0: 0981 f83d aebb fc3d 8b5a e1bd 0b34 cf3d
000001d0: 1034 c73d 532f e9bd e214 f4bd 6013 c1bd
000001e0: 3bc5 dc3d aee6 f9bd 3499 2a3d 1988 a0bd
000001f0: b3c1 33bd eb65 d43d 4034 bfbd a7f2 bebd
00000200: 0fdc e53d 1e59 88bd e561 923d d257 e5bb
00000210: f153 dd3d 2be4 63bc 526b c1bd 0d37 b5bd
00000220: 33ac df3d a35b 2cbc 051e 153d a4b4 c13d
00000230: e9b2 abbc 9030 ae3d 7420 bcbd aa65 b63d
00000240: b483 9fbd 4499 56ba c82e b1bd 3fe8 ea3d
00000250: f161 bcbd 6848 aebc 9aef 903d a4d8 f0bd
00000260: 70f1 8e3d 5d7e c1bd 48d9 babd e102 173d
00000270: 8c41 8abd 910d ffbd 0720 8bbc 3aa7 a43d
00000280: 71e8 b53c 59b9 55bd 0e0f 9c3d 21ad 07bd
00000290: e903 f9bd 4cb3 133d 45a9 f6bd afde 7d3d
000002a0: 38c9 c93d 7caa 08bd d6bc 80bd 71ba 3ebd
000002b0: a087 b23d 36d6 3fbd 5496 823d c919 f63d
000002c0: 0b31 a7bd 4e32 b9bd 023b d1bd 5d9d d33d
000002d0: 4806 2dbd 0e63 9b3d d86b b7bc 6cf1 353d
000002e0: 2112 aa3d 9b4e 4a3d a651 edbd d3f5 53bd
000002f0: d897 923c a372 8f3d 7571 8f3c e472 a7bc
00000300: 19a0 f63d 8362 fdbb e1ed 33bd 44b3 c63d
00000310: 5fc5 f0bb 4e45 7e3c 701a c7bd ffd6 a6bd
00000320: 4109 21bd af5b e83d ee5b 3e3d 8f97 42bd
00000330: 3fb0 3fbd b8d2 9dbd a3b8 593d e307 af3d
00000340: dc8e 893d 40f9 f5bd 8ad5 1b3d 188c b23c
00000350: e558 163c f012 80bd 673f ddbd ae0b 5abd
00000360: d184 d93d ff75 923d e9ff a7bd 5bcc a4bd
00000370: 3e2c d7bd 8b14 fcbc 17eb 723c 3511 923d
00000380: 82b8 a83d 2ef9 82bd aceb b8bd 6dbb 823d
00000390: 1ac5 46bd 652e 143d 9b83 a4bd 0cbb e4bd
000003a0: 2c81 02be 7dce da3d 3161 913d 9043 ad3d
000003b0: 958f 9b3d d9b2 93bd 0675 dd3d 1b0d 243d
000003c0: 6c70 813d 8a4c a23d cad5 c0bd 88e6 abbb
000003d0: f94c b6bd 450b a33d be2c 773c 4dda 943d
000003e0: 8263 a7bd 19d9 07bd cf9e db3d e7ae 25bd
000003f0: c176 7fbd f8d6 c93d ac07 00bc 3289 e7bb
-0.097316384 0.0007927145 0.0101031875 0.085526854 0.08893153 0.08564283 0.08575618 -0.04080807
-0.039771102 0.06265821 0.025268845 -0.117253385 0.11575608 -0.112429336 -0.09872832 0.09587165
0.043797687 0.06380278 -0.062455766 0.10296683 0.0281711 0.086157136 0.012395775 0.01015814
-0.08980885 0.03388044 0.09291852 -0.016925726 -0.05399364 -0.09984102 -0.017634764 0.1250795
0.114946954 0.12339992 0.001029005 -0.103952035 0.045011923 -0.087400734 -0.0039832895 -0.025162166
0.09559284 0.0965938 0.05340385 0.037015375 -0.08706474 -0.09098877 -0.052930012 0.018651243
-0.1143831 0.018174704 0.0965836 0.12288093 0.0047629504 0.1238577 0.097567 0.07836342
-0.093744524 0.108562216 0.07420202 -0.0006911671 -0.11495281 -0.10557196 -0.09040618 0.12922512
0.09133076 0.017926471 -0.109492086 0.085423335 -0.016783357 0.04112676 0.023388866 -0.04832115
0.11095664 -0.1042742 0.058651276 0.01653829 0.08941697 0.026044887 0.10912305 -0.093562625
-0.03736921 0.12430372 0.031015553 0.073190674 0.06644929 -0.03916821 0.115229405 0.009743422
0.048312243 0.043146938 -0.032882564 -0.058541514 -0.078338034 0.10269255 -0.0174076 0.012639785
-0.023086712 -0.09169434 0.08796733 -0.021540152 -0.0032788357 -0.09671235 -0.03605903 -0.0877158
0.056110606 -0.0490495 -0.068884484 0.026037337 0.030179229 -0.10583683 0.05395331 -0.01673758
0.121339865 0.123404846 -0.11003598 0.10117348 0.09726727 -0.113859795 -0.119180456 -0.094275236
0.10779806 -0.12202202 0.041650012 -0.078384586 -0.043885898 0.10371002 -0.09336138 -0.09323626
0.112236135 -0.06657623 0.07147578 -0.0069989944 0.10807026 -0.01390938 -0.09444298 -0.08848391
0.10921516 -0.010519895 0.036405582 0.094582826 -0.020959334 0.08505356 -0.091858774 0.0890611
-0.07788792 -0.00081862905 -0.08651501 0.11470079 -0.09198368 -0.02127476 0.0707695 -0.11760071
0.06979644 -0.0944793 -0.09123474 0.03686798 -0.06750783 -0.124537595 -0.016983045 0.080397084
0.022205563 -0.052178714 0.07620059 -0.033124093 -0.12158949 0.036059663 -0.12044004 0.061979946
0.098528326 -0.03336571 -0.062860176 -0.046564523 0.08717275 -0.046835147 0.06376329 0.12016637
-0.08163651 -0.09042798 -0.10216333 0.10332749 -0.04224232 0.075872526 -0.022390291 0.04441969
0.08304239 0.04939137 -0.11587839 -0.051748108 0.01789467 0.07004287 0.017510155 -0.020440526
0.12042255 -0.007732691 -0.04392803 0.09702161 -0.007347747 0.015519453 -0.097218394 -0.08146476
-0.039315466 0.11345612 0.04647439 -0.04750782 -0.04679894 -0.07706207 0.0531546 0.08546426
0.067167014 -0.12010431 0.038045444 0.021795318 0.009176468 -0.06253612 -0.10803109 -0.053233795
0.10621036 0.07151412 -0.08203108 -0.0804679 -0.105064854 -0.030771514 0.014826558 0.07132188
0.08238317 -0.063951835 -0.09029326 0.06383405 -0.048527814 0.036177058 -0.08032914 -0.11168489
-0.12744588 0.10683916 0.07098616 0.08460152 0.075957455 -0.07211847 0.10813336 0.04005156
0.06320271 0.07924755 -0.09415777 -0.0052459873 -0.089014 0.07961134 0.015086351 0.072682
-0.081732765 -0.033166025 0.1072365 -0.040450003 -0.062369112 0.09855455 -0.007814329 -0.0070659155

lstm.bias_ih_l1 f4 [256]
00000000: 2d0b 8fbd 5426 a9bd 2514 45bd 037d 383d
00000010: 239a 97bb 07e1 913c 6925 fa3d 9915 bf3d
00000020: 4b69 df3d 6d37 d9bd a951 b5bc bae9 39bd
00000030: cd1c aa3d 6c28 863d b02c 813d d5ea 9b3c
00000040: 3fc9 d93d 1f16 183d 718d 0c3e 5d5d 58bd
00000050: 2f6d 41bd 7d46 6cbd 6446 c9bd 413a 143d
00000060: 9703 47bd 2683 923d e6a9 90bc 6067 cebd
00000070: 3e64 b8bc 642c a0bd 52f7 db3c c60d d23c
00000080: 2d23 a53d 6e8e dabd a713 8bbd 64a4 13bd
00000090: b50a cabd 8c72 a1bd 8bce a2bd e6eb e53d
000000a0: 5e2d e4bd 0a43 cd3d 6a9b a43c dbd4 5f3b
000000b0: 0cca 35bd 493a 823d e153 9cbd b056 863d
000000c0: 39e6 cbbd e034 8a3d 93aa 0dbd a024 c73d
000000d0: f03d ce3d 42b9 b4bd 248c c73d 97dc 0a3e
000000e0: dfba 90bc 10a7 003e 8565 85bc d7c4 c93d
000000f0: 8e02 83bd 201f 9ebd f0f7 60bd 5349 ae3d
00000100: c958 cdbd f461 14bc 2de4 74bd 50a0 eabd
00000110: 5680 ffbb 9bb5 f63d 525b 833d 6dff 313c
00000120: dc0d 883d af2e ccbc 9ab8 34bc 8f7a 46bd
00000130: 5c9a 38bd 5a64 fabd 0288 e1bd 12da af3c
00000140: d373 dcbc d71a 08bd 12a8 8abd 8167 203a
00000150: 6560 52bd 130c 71bd fd6c 9c3d 8bd9 8d3c
00000160: d813 22bc 2f33 dcbd 9021 8f3c 54fe 2a3d
00000170: dbff 043d c16c b53d ce15 85bd 362d f73d
00000180: a770 f8bd 58f0 3b3d a391 fcbb 5f55 d33d
00000190: 3723 b6bc 7127 973d 51a7 2d3b 6efd cbbd
000001a0: 2a8e 063d d1d9 85bd 9dc4 83bc 77e2 edbd
000001b0: 8c7b 863d d56e e1bd 5bb0 bc3d d3e5 09bc
000001c0: 9ccd 9f3d aa34 c3bd fe9a f73d 4696 6dbd
000001d0: 5a14 493d c134 0c3b b925 a4bd 61e1 2937
000001e0: f23a 3d3d 4f8a 493d 8163 cdbc 3b59 debd
000001f0: 2333 653d 7109 d2bd 2409 a93d 5419 293d
00000200: 523c cc3d 088f 84bd 477a a63d 9df7 313d
00000210: 2d8b aebd 719b 893d 86ba f13c 91f8 f33d
00000220: a9c9 36bd ea2d bebd 0c92 653d 17b6 a13d
00000230: 181f 453d 9630 50bc c20a 82bd 7eec 9cbc
00000240: 71a9 9bbd 66d6 f33c 41e8 833d 2e35 18bc
00000250: b43e 2c3d 16b4 70bd 1bb9 563d d005 943d
00000260: 6b8c 13bd d633 febb 9bea eebb 15eb 073d
00000270: 905f 6f3d 2ce6 90bd b437 a8bd 9cb4 8cbd
00000280: 690f e5bd 3e95 9d3d bd25 e3bc 4afe 80bc
00000290: eee3 8cbd 96b0 e3bd e6c7 12bd 7a0b 87bd
000002a0: 2642 97bd 81ec a6bd 39c6 d43c 8994 c03d
000002b0: b612 d73d e4f0 88bd 778c f43d dae8 0cbd
000002c0: c190 88bd 9cbc 4ebd 0a48 27bd 347a 5c3d
000002d0: d099 e03d 039f d63c 959f c2bd 65c3 b2bd
000002e0: 8a76 dc3a 2678 ccbd 23f4 a4bd cfb2 c63d
000002f0: 139e a73d 4972 843d 8cd0 87bd 3041 b13d
00000300: d11d e3bd 31a6 943d 1f6d 923c 1e8b 93bc
00000310: 57da 92bd 1316 9f3d 1764 673d 2b19 663c
00000320: 53ca a03d 1d53 35bd d27a b83d b25d 6dbb
00000330: 7e09 59bd bf1c bcbc c16b 893d 54e8 e3bd
00000340: bacd 12bd 52c0 fabd d0d4 9fbd 4b85 c5bd
00000350: 1d45 103d 1c80 1c3d a98e 053e 2345 803d
00000360: 5ee8 803d e5c4 91bc 79e8 1d3d 18ca f73c
00000370: 1215 643d b4b8 2bbd 435e 80bd eda2 603d
00000380: ad0d d83d e8b7 b73d 8d16 893c 3ba9 f33c
00000390: 7b87 18bc 170a 58bd d2ac 6cbd 6072 bebd
000003a0: 5e6f 61bd 3d93 4c3d 31ec 7ebc 9ea5 f33c
000003b0: 6792 c8bd f593 7e3d 9412 81bc 16b5 ecbd
000003c0: d372 533d b0ef 73bd 962c 88bc c572 bd3d
000003d0: a8c1 a43b 7020 26bd 2740 04bd 623c 9f3c
000003e0: b40f cb3d e1e1 fa3c 4591 59ba ae3b eebd
000003f0: 0f0b b63d 18b9 383c 168c 853d d24e 403d
-0.069845535 -0.08259264 -0.048114914 0.045041095 -0.004626529 0.017807497 0.12214167 0.09330291
0.10908755 -0.10606275 -0.022133665 -0.045388915 0.083062746 0.065506786 0.063073516 0.019032875
0.10634088 0.03713047 0.1372583 -0.052823413 -0.047223266 -0.05768441 -0.09827879 0.036188368
-0.048587408 0.07153921 -0.017659139 -0.10078311 -0.022508737 -0.07820967 0.02685133 0.025641333
0.0806335 -0.106716976 -0.06790858 -0.036045447 -0.098653235 -0.07883176 -0.07949551 0.11226635
-0.111414656 0.10022552 0.020093638 0.0034153971 -0.04438214 0.06358773 -0.07633186 0.06559503
-0.09956021 0.06748366 -0.0345865 0.097237825 0.100704074 -0.088243976 0.097435266 0.13560711
-0.017667232 0.1256373 -0.01628376 0.09851997 -0.06396972 -0.077207804 -0.05492395 0.08510079
-0.100267 -0.009056557 -0.059787918 -0.114563584 -0.0077972813 0.12046357 0.06413902 0.010864121
0.066432685 -0.024924604 -0.011030341 -0.048456725 -0.045069084 -0.12226172 -0.110122696 0.021466289
-0.026910698 -0.03322872 -0.06770338 0.0006118939 -0.05136146 -0.058849405 0.07637975 0.017315647
-0.009892426 -0.1075195 0.017472059 0.041746452 0.032470565 0.08858634 -0.064982995 0.1206917
-0.12130862 0.045883507 -0.007707791 0.103190176 -0.022233589 0.0738057 0.0026497433 -0.09960447
0.032850422 -0.06535686 -0.016084963 -0.1161546 0.065665334 -0.11007468 0.09213325 -0.008416611
0.07802889 -0.09531529 0.12090109 -0.05800464 0.049091674 0.0021393748 -0.080150075 1.012566e-05
0.046198793 0.049204167 -0.025071861 -0.10856863 0.05595697 -0.10255707 0.082536966 0.04128392
0.09972443 -0.064725935 0.08128791 0.043449033 -0.085226394 0.06719101 0.029507887 0.11912645
-0.04462591 -0.09286101 0.056047484 0.07896059 0.048125356 -0.012706896 -0.06349708 -0.019155737
-0.07600678 0.02976532 0.06440783 -0.009290023 0.042051986 -0.058765493 0.052422624 0.07227671
-0.036022585 -0.007757644 -0.0072911507 0.033183176 0.058440745 -0.07075152 -0.082137495 -0.06870386
-0.1118458 0.07694481 -0.027727956 -0.015746254 -0.06879412 -0.111176655 -0.03583517 -0.06593986
-0.07385664 -0.08150578 0.025973426 0.09403331 0.10501616 -0.06686571 0.11940854 -0.034401752
-0.066682346 -0.05047284 -0.040840186 0.05382748 0.109668374 0.02619887 -0.09503094 -0.08728675
0.0016819995 -0.09983854 -0.08054378 0.09702074 0.08184447 0.06467111 -0.06631574 0.08655012
-0.110896714 0.07258261 0.017874299 -0.018010672 -0.07170551 0.07767882 0.056491937 0.014044086
0.0785109 -0.044268716 0.09007801 -0.0036219177 -0.052987568 -0.022962926 0.067100056 -0.111282974
-0.035840727 -0.122437134 -0.07804263 -0.09644564 0.03522216 0.038208112 0.13042702 0.06263187
0.062943205 -0.017794082 0.03855178 0.030247733 0.055684157 -0.041924194 -0.06267979 0.054842878
0.105494834 0.08970624 0.016734386 0.029743781 -0.009309645 -0.052743997 -0.057782 -0.09299159
-0.05503785 0.049945105 -0.015559242 0.029742058 -0.09793549 0.06215282 -0.015755929 -0.11557977
0.051623177 -0.059554756 -0.016622823 0.09250406 0.0050279684 -0.04055828 -0.032287743 0.019437972
0.099151045 0.030625286 -0.000829954 -0.11632477 0.08888828 0.011274599 0.0652086 0.04695017
