RNN/Model/RNN_Model_0.pth (torch, 67575 bytes, 15 tensors)

rnn.weight_ih_l0 f4 [64, 9]
000000 26 c8 8b bd 9d 59 b8 3d 7a 79 26 3d 54 65 ac bd
       -0.06825285 0.090014674 0.040643193 -0.08417764
000010 6f c3 f3 3d f2 88 fd 3d d6 0e 49 3d 43 58 eb 3d
       0.119025104 0.12379636 0.049086414 0.11491444
000020 92 34 f0 3c 71 26 cb bd 33 c2 5d 3c 08 b3 43 bd
       0.029321942 -0.099194415 0.01353507 -0.04777816
000030 13 43 a0 3d cc 0c e4 3d e4 56 a9 bd 0e d6 f5 3c
       0.078252934 0.11135253 -0.08268526 0.030009296
000040 42 82 d1 3c 50 02 3e 3a 42 57 a6 bd 6e 84 ce 3d
       0.025574807 0.00072482694 -0.08122112 0.10083853
000050 71 45 b8 3c f0 4d c4 bd 6d 2f ae bd f6 4f cc b8
       0.02249405 -0.09585178 -0.085051395 -9.742372e-05
000060 8b ce 3f bd 34 56 a8 3c 96 09 05 bd f4 fc eb bd
       -0.046827834 0.020548917 -0.032479845 -0.11522856
000070 4b 7c a1 3d 81 12 c4 bd 88 20 57 3c 5a 0a e5 bc
       0.07885035 -0.09573842 0.013130315 -0.027959038
000080 01 ab 9c bd f0 25 bc 3d eb 43 b1 3b 9c ba b1 bd
       -0.07649804 0.091869235 0.005409708 -0.08678171
000090 e2 c3 99 3d ad f1 70 3d 7d ca fa bb b8 36 a4 3d
       0.07508065 0.05882423 -0.007653533 0.08018249
0000a0 62 d8 02 3e ed ef 7f 3c c5 01 bc 3d 72 f7 2d bd
       0.12777856 0.015621168 0.09180025 -0.04247231
0000b0 8b 19 1c 3b aa b0 b4 3d ba 2e cd bd 04 7d ad 3d
       0.0023818936 0.088227585 -0.10018678 0.084711105
0000c0 f8 16 3f bc b9 fc 95 3d 3a f0 dd 3d 38 33 13 bd
       -0.011663191 0.07323594 0.10836835 -0.035937518
0000d0 51 25 e3 3d 30 21 b7 3c e8 62 cc 3d aa 81 7a bd
       0.11091102 0.022354692 0.09979802 -0.061158814
0000e0 1c 9c 01 3d 25 59 56 3d 95 75 aa bc 9e c8 e7 b9
       0.031643018 0.05233111 -0.02080802 -0.00044209225
0000f0 f5 e3 e4 bc d5 84 b5 bc 79 8b 93 bd c2 62 3b bc
       -0.02794073 -0.022158066 -0.07204337 -0.01143712
000100 2b 26 bd bd 17 96 d3 bb e6 1f c6 3b 82 15 9a 3d
       -0.092357956 -0.006457101 0.006046283 0.075236335
000110 55 73 f6 bd 44 99 de 3d e4 81 84 3a 3d 5c b1 bd
       -0.120337166 0.10869077 0.0010109511 -0.08660171
000120 7d 76 a4 bc ca 21 c8 3a af 65 fa bd 61 da ca 3d
       -0.02007603 0.0015268859 -0.12226426 0.09904934
000130 e2 63 e3 3c e5 4d 6b bb 15 b7 a1 bc a1 78 7c 3d
       0.027757589 -0.0035904583 -0.01974062 0.06163848
000140 d6 58 32 3d ac 4b 4c 3d 20 73 b3 3c af 3f ec bd
       0.04354175 0.049876854 0.021905482 -0.11535584
000150 65 bf 51 3d e3 c6 99 bd 12 3d b6 bd 27 4a 6b 3c
       0.05120792 -0.07508638 -0.08898367 0.014360941
000160 30 1f 9d 3d c6 5a 3f 3d 2f 86 d4 bd 57 77 dc 3d
       0.07671964 0.046717428 -0.10377156 0.1076495
000170 b7 f6 c5 3c 61 bc 77 3c 23 d7 af 3d bd 23 6c bd
       0.024165494 0.015120597 0.08585956 -0.05765127
000180 88 8e bc 3c cf f8 d0 bd c4 15 0a 3d 91 2e c4 3c
       0.023017183 -0.102037065 0.033712164 0.023947986
000190 a2 1c c3 bd 0c 99 a5 bc e1 08 fb 3d ee b9 33 bc
       -0.09526946 -0.02021458 0.12257553 -0.010969622
0001a0 17 9e e8 3d 8e 8b bf 3d 75 a9 15 3c 65 bd e9 3c
       0.11358278 0.0935279 0.00913464 0.028532693
0001b0 5e d1 75 bd 0a eb a4 bc dc 36 c2 bd e1 1e 4d bc
       -0.06001412 -0.020131607 -0.0948312 -0.012519569
0001c0 a5 dc 9a bd 09 1a 38 bd 13 18 21 bb 96 17 d6 bd
       -0.07561616 -0.044946704 -0.0024581 -0.104537174
0001d0 c0 4a 6a 3c 71 78 e7 bd a2 b2 5f 3a 3a 57 7e 3d
       0.014300048 -0.11302269 0.0008533393 0.062094904
0001e0 8e e5 40 bd 01 e2 9b bc 07 16 88 bd ba 80 8e 3d
       -0.04709392 -0.019028665 -0.066448264 0.069581464
0001f0 f0 ec 20 3d 2a 5d c0 3c 43 a1 c2 3c 83 cf a5 bd
       0.03928846 0.023481924 0.023758536 -0.0809622
000200 19 90 bb 3d 30 1d 3f 3c 9c 54 2c 3d 24 68 cf 3d
       0.09158344 0.011664674 0.042072877 0.10127285
000210 0f 19 3f bc e0 c4 cd 3d 75 63 41 3d 38 70 87 bd
       -0.011663689 0.100473166 0.04721399 -0.06613201
000220 1e eb fc 3d a3 fd 86 bc 3e 9a 0a 3c 89 86 68 3d
       0.123495325 -0.016478365 0.008459626 0.056768928
000230 ff 83 8a bd 34 01 54 bd a6 50 9a 3b 91 6f c0 bd
       -0.067634575 -0.05175896 0.004709321 -0.093962796
000240 fb f7 1e 3c 1f 33 b5 3d 50 15 d9 3d af 42 94 3d
       0.009702678 0.08847641 0.10599768 0.072392814
000250 0a 58 05 b9 f3 11 01 3d c2 4f 04 3d 93 7f 20 bd
       -0.00012716666 0.03151126 0.032302625 -0.039184164
000260 90 74 20 bd 77 34 8a bd 4e 86 9f 3d cd 0d 36 3d
       -0.039173663 -0.06748288 0.077892885 0.044446755
000270 71 2f 80 bd 44 9a d1 3c 2d 11 ac 3c d0 63 bc bd
       -0.06259049 0.025586255 0.021004284 -0.09198725
000280 f8 50 ed 3c f9 3f 5f bd 5b a5 7c bd fa 39 8a 3d
       0.028969273 -0.05450437 -0.061681133 0.067493394
000290 5c 85 dc 3d 86 9f c7 bd 06 56 d5 3d ca a3 5e bd
       0.10767624 -0.097472236 0.10416798 -0.05435542
0002a0 b3 dd d0 3d e1 00 a9 3c f1 c9 df bd ac 9c 6f 3d
       0.10198536 0.020630302 -0.10927189 0.058499023
0002b0 b9 92 e5 3d 6b ef 78 3d 47 2b c6 3b 0b 04 84 bd
       0.11209626 0.0607752 0.0060476395 -0.06446084
0002c0 0b 99 ac 3d 51 63 db bd 36 31 c9 bc 5a 04 53 3b
       0.08427628 -0.107123025 -0.024559598 0.0032198639
0002d0 76 63 f6 bb f9 bc 12 3d 94 ae d9 3d ab 0d a0 bd
       -0.007519181 0.03582475 0.10629001 -0.07815107
0002e0 47 43 4b bd 4c b1 94 bd a9 22 43 bd 6d 52 d7 3c
       -0.049624708 -0.07260379 -0.047640476 0.02628442
0002f0 f4 25 13 3d e6 70 6d 3c 70 ce d6 bd 15 98 6e 3c
       0.035924867 0.014492249 -0.104885936 0.014562626
000300 e7 7d b0 3c eb 7c 99 bd 2a e4 41 bc 48 74 df 3c
       0.02154441 -0.07494529 -0.011834184 0.027277127
000310 b4 5b 99 3d 42 7c c3 3d 63 fd 09 3c dd 21 ed 3c
       0.07488194 0.09545185 0.0084222285 0.028946811
000320 26 0b f2 bd bc b5 b6 3d f0 27 24 3d 54 e5 27 3d
       -0.11818533 0.08921382 0.04007715 0.04099019
000330 a2 d5 11 bc 93 39 30 bd 43 bd 96 bd 12 d9 db 3d
       -0.008901032 -0.043023657 -0.073603176 0.10734762
000340 e5 fb b0 3d 08 5c ee bd 28 09 d6 bc 25 5e a3 bd
       0.08641795 -0.11638647 -0.026127413 -0.07976941
000350 8a f9 f1 3d 2c b0 48 bd df 63 36 3c 63 27 c4 bd
       0.11815174 -0.048996136 0.01113221 -0.09577825
000360 d9 ea ba bd 28 cf f1 bd 61 50 32 bd 6a 85 9b 3c
       -0.09126825 -0.1180709 -0.043533687 0.018984515
000370 41 9f 55 3d aa d9 97 3d b8 ea 2f bd 30 3e a8 3c
       0.05215383 0.07414563 -0.042948455 0.020537466
000380 7a 87 e2 bd ad c2 f6 3d fe 55 c0 bc 98 35 c4 3d
       -0.11060996 0.1204885 -0.023478504 0.09580535
000390 c1 ac bd 3d 26 88 b2 bd ef e3 5f 3c c6 e5 8a 3d
       0.09261466 -0.087173745 0.013665183 0.06782107
0003a0 62 9f 37 bd e0 90 5c 3d b3 c9 ea bd 94 af ec 3d
       -0.044829734 0.0538491 -0.11464252 0.11556926
0003b0 fa e3 81 bd ee ba 48 bc 8e 3d f0 bd be da cf 3d
       -0.06342311 -0.012251599 -0.117304906 0.10149144
0003c0 e9 f6 01 3d d8 c7 61 3d 48 3a eb bd d9 c0 79 bc
       0.031729612 0.055122226 -0.11485726 -0.015243732
0003d0 ba c0 80 ba dc 35 fb 3d 82 ce e8 3c b6 ae e0 3d
       -0.0009823062 0.12266132 0.028418783 0.109708235
0003e0 e0 c0 df bd 24 5c ec bd 70 fa c0 3c cd 1e 84 3b
       -0.1092546 -0.11541012 0.023556918 0.004031992
0003f0 87 f5 94 3c 83 b4 bf bd 45 3e cb 3c 96 fc b2 ba
       0.018183483 -0.09360602 0.024809966 -0.0013655599

rnn.weight_hh_l0 f4 [64, 64]
000000 7f 84 bc bd 11 08 f4 bd 0b ee bc bd 8e 65 b8 b8
       -0.09204959 -0.11915601 -0.092250906 -8.79272e-05
000010 65 1b a4 bd af 04 e3 bd eb 23 8d bd c5 79 cc bc
       -0.080130376 -0.11084878 -0.068916164 -0.024960408
000020 05 44 bc 3d 8d ab d1 3d 07 89 c7 bd d8 e4 63 3d
       0.09192661 0.10237799 -0.09742933 0.055638164
000030 ce f4 5f bd 1a b8 5c bc 7a 36 9f 3c 06 0c 02 3e
       -0.054676823 -0.013471628 0.019435156 0.12699899
000040 67 2d 2e bd fc 5c c7 bd 08 6a 35 bd 43 3d 8f 3d
       -0.042523768 -0.09734532 -0.044290572 0.069941066
000050 a2 24 b9 3d ea 9c 5d bd 79 10 e9 3d 84 b7 d8 3d
       0.0904019 -0.054104723 0.11380095 0.10581878
000060 f7 05 af bb 40 ab a7 bd 95 d7 fc bd 09 d0 04 3e
       -0.0053412872 -0.0818696 -0.123458065 0.12969984
000070 d8 be 08 3d 3a 77 9f bd 7e 4f 9f 3d 30 41 b3 3d
       0.033385128 -0.077864125 0.07778834 0.08752668
000080 a2 3a 35 bd 6c 8f a9 3d 89 8e 4f 3d e6 87 a4 3d
       -0.04424537 0.08279309 0.05067304 0.08033733
000090 c6 4e 88 3c c0 8b b3 bc c4 bc d1 3d b6 1a 8d bd
       0.016639125 -0.021917224 0.10241082 -0.0688986
0000a0 94 c0 94 3c 3f 80 05 3d f9 2b f4 3d e5 f6 75 bd
       0.018158235 0.032593008 0.119224496 -0.06004991
0000b0 da 95 27 3d c6 cc be 3d b4 29 fe bd 6a e6 bd 3d
       0.040914394 0.09316401 -0.12410298 0.092724636
0000c0 8d 67 f7 3d 9e ca 92 3d cd d9 3a 3d f9 20 f7 3d
       0.120802976 0.071675524 0.045617867 0.12066836
0000d0 0a 24 82 3d 70 55 0d bc 8a 11 f4 3c be 00 f2 3d
       0.0635453 -0.008626327 0.02979352 0.11816548
0000e0 50 71 03 3d 35 0c eb 3d b2 3d 90 bd 23 46 b8 3d
       0.032090485 0.11476938 -0.070430174 0.089977525
0000f0 c3 7f 01 bd db fc c0 bd 8b ad 44 bd e3 9b c7 3d
       -0.031615984 -0.09423228 -0.048017066 0.0974653
000100 da 41 94 3d fb bc 82 bd 9f f5 1e bd 48 e4 4d bd
       0.07239123 -0.063837014 -0.03880846 -0.050266534
000110 85 c4 57 3d 85 2a 81 bd a4 d6 d1 3d a7 eb e0 bd
       0.05267765 -0.06306938 0.102460176 -0.10982447
000120 7b bb 6d 3d ba cc f7 3d da 2b 00 3e e4 b2 b6 3d
       0.058040123 0.12099595 0.12516728 0.089208394
000130 be 0c 8a bd f6 2d 96 3d f3 90 1f bd d6 68 be bb
       -0.06740712 0.07332985 -0.038956594 -0.0058108373
000140 06 aa b4 bd 83 d9 93 bd 77 0d 37 3d a9 41 c7 3d
       -0.08821492 -0.072192214 0.044690575 0.097293206
000150 a8 f6 ad 3c 43 ae 5e bc 0a 3c 63 bc 0d 24 9d 3d
       0.021235779 -0.013591352 -0.013869295 0.07672892
000160 29 26 ab bd 0e 07 81 bc 74 69 74 3d 34 57 f8 bd
       -0.08356888 -0.015750434 0.05967088 -0.12126008
000170 5d 5a e5 bd 2c c4 03 3d 61 9c 4a ba 2a 4f 87 3c
       -0.11198876 0.032169506 -0.0007728991 0.01651724
000180 86 ed 1e bb 0e 8d 47 3d bd 3b 4d bd 55 13 32 bb
       -0.0024250462 0.048718505 -0.0501058 -0.0027172167
000190 4f 56 4f 3d 6f e7 ed bd 5b 70 9b bd 19 05 89 3d
       0.05061942 -0.11616408 -0.075897895 0.066904254
0001a0 63 e6 10 bc 52 f2 c4 3c e4 a5 bb 3c 90 8a d2 3d
       -0.008843991 0.024041329 0.022906251 0.10280335
0001b0 08 10 5e bd 1b 3d d2 ba 71 b8 46 3c 56 39 b8 bd
       -0.054214507 -0.0016039939 0.012128935 -0.08995311
0001c0 cd ed c6 3d 19 4b fd 3c 77 83 d8 3d f4 69 d3 3d
       0.09713326 0.030919598 0.1057195 0.10322943
0001d0 35 34 89 3c ad f1 d7 3d a3 82 3b bd a2 d2 82 3d
       0.016748527 0.10544143 -0.04577888 0.06387831
0001e0 72 87 ca 3d 18 f2 b7 3d 53 b1 38 3d c7 07 22 3d
       0.098891154 0.089817226 0.045090985 0.0395582
0001f0 2a 45 e6 bd 39 6c 9d ba 00 34 92 b9 62 8c 41 3d
       -0.11243661 -0.0012010402 -0.00027886033 0.04725302
000200 ba f4 f8 3d b9 68 59 bc ea 77 c7 bd ea a5 61 3d
       0.12156053 -0.013269597 -0.09739669 0.05508987
000210 5a f9 b8 bc e2 5a cc bd 33 92 bb 3d 78 02 ef ba
       -0.022579838 -0.09978272 0.09158745 -0.0018234989
000220 66 2d fa 3d e2 c7 ba 3d 8e 47 12 bd 5e d1 bb 3d
       0.1221569 0.09120156 -0.03571277 0.09170793
000230 59 a8 c8 3d fe a8 32 3d 71 21 5b 3b 89 9c d2 bd
       0.09797735 0.043618195 0.003343668 -0.10283763
000240 16 58 02 be 2d 27 ec 3d 2d 3a 33 bd 0d b2 f0 bd
       -0.12728915 0.1153091 -0.043756653 -0.117527105
000250 61 86 ed 3d 9c c7 98 bd 76 07 29 bd 2a 84 b5 3d
       0.11597896 -0.074599475 -0.04126688 0.08863099
000260 a6 4c ed 3d 2a e6 15 bc 0a d5 3a bd 9a 75 49 bd
       0.11586885 -0.009149114 -0.045613326 -0.04918442
000270 d3 68 49 3b e1 55 09 bd a8 79 b6 bd 02 52 a9 bd
       0.0030732646 -0.033529166 -0.08909923 -0.08267595
000280 06 56 85 bd 5d c2 d4 3d 71 89 a4 3d 68 c9 1e bd
       -0.06510548 0.10388634 0.08034027 -0.038766295
000290 40 4d 99 bd 2a 47 c8 bc cb 36 e4 bd ba ec ec bd
       -0.074854374 -0.024447996 -0.111432634 -0.115685895
0002a0 c2 30 20 bd bf 1a fc 3d cd ad f5 3c 18 45 65 bd
       -0.039109 0.12309789 0.029990101 -0.055974096
0002b0 c7 18 ef bd 97 67 d7 bc 2b e9 e2 3d ff f9 4f 3d
       -0.11674648 -0.026294513 0.110796295 0.050775524
0002c0 81 ef 71 bd 02 2a 81 bd 43 f0 b8 bd 52 35 01 be
       -0.0590663 -0.063068405 -0.09030201 -0.12617996
0002d0 e5 91 28 bb 87 1e e7 3d 2f e9 e2 bd 61 d0 59 bd
       -0.0025721726 0.112851195 -0.110796325 -0.05317724
0002e0 74 ba f6 3a f1 01 75 3d 94 23 46 bd 45 33 38 bd
       0.0018823878 0.059816305 -0.048373774 -0.04497077
0002f0 bd f2 cf 3b f1 99 fe 3b e0 ac 2d 3d 87 b2 ed 3c
       0.0063460753 0.007769816 0.042401195 0.029015793
000300 97 bb 89 bd 0b 3c 4d 3d 53 4e 92 3b d8 02 d2 bd
       -0.06725233 0.05010609 0.0044649034 -0.10254449
000310 2b 07 bd bd 99 22 e9 3c c2 d8 f3 3c b5 31 ed 3c
       -0.09229883 0.02845888 0.029766444 0.028954366
000320 37 aa 5e bd 0f ad 5c bd 83 75 01 3d 12 67 85 bd
       -0.05436155 -0.05387598 0.03160621 -0.065138
000330 0a 15 c5 3d 7a 6a 9a bb c9 d9 bf bd 1e 68 90 bd
       0.096231535 -0.0047124 -0.09367711 -0.07051109
000340 27 e9 31 3d 98 5a bf 3c 46 84 68 3d 8b 96 a2 3b
       0.043435242 0.023358628 0.05676677 0.004961794
000350 70 bc ad 3c be 2e fd 3d 1e e8 d9 bd 2c 9f 35 bd
       0.021208018 0.12362431 -0.10639976 -0.04434125
000360 29 99 ec bd de 55 11 3d 3a 37 f0 3d ad a9 be bd
       -0.115526505 0.03548228 0.11729284 -0.09309707
000370 6b 16 1e bc 80 31 59 bd 52 c8 19 bd ac ca 32 bd
       -0.0096489 -0.053025723 -0.037544556 -0.043650314
000380 1d 69 e8 bd 1b ac 9b bd 3d 3a 20 3d dd 75 ac 3d
       -0.11348174 -0.07601186 0.03911804 0.08420918
000390 a9 19 78 bd f9 a1 e7 bd 5b 48 60 3d 3e 36 fc bb
       -0.060571346 -0.11310191 0.054756504 -0.007696896
0003a0 66 99 8b bd b3 e4 c6 bc 57 f5 e1 bd 6d 64 d8 bd
       -0.06816368 -0.024278974 -0.11033123 -0.1056603
0003b0 cd 75 cd bd 7a 70 1c bd b3 5f a9 3d 12 63 36 3d
       -0.10032234 -0.038193204 0.08270206 0.044528075
0003c0 e8 c8 b7 3c 89 c0 b9 3d a1 e1 81 bd c6 51 9d 3d
       0.022434667 0.09069926 -0.063418634 0.07681613
0003d0 c0 70 b4 bd 2d 84 8c 3d 47 7e 57 3b ae 50 a8 bc
       -0.08810568 0.06861148 0.0032881664 -0.020546284
0003e0 d1 ed 04 bc 64 3b 03 bd a2 3a fe 3d 78 86 1c 3d
       -0.0081133405 -0.03203906 0.12413527 0.038214177
0003f0 2f 02 e6 bd 7e cf 6c bd 6a 89 de 3c f1 28 7c 3c
       -0.11230885 -0.057815067 0.027165134 0.015390621

rnn.bias_ih_l0 f4 [64]
000000 53 58 86 bd f5 71 29 bd 8c 69 c1 3d 87 0f b3 3c
       -0.06559815 -0.041368444 0.094439596 0.02185799
000010 1b 80 73 3d 1e a2 bd bd 82 4d e6 bd 0e 92 c1 3d
       0.059448343 -0.09259437 -0.11245252 0.09451686
000020 d7 a2 b4 3d bb f3 b8 3c cc b9 b2 3d 2e 62 b0 bd
       0.08820122 0.022577157 0.08726844 -0.08612476
000030 05 0e c2 3c 9c e9 22 bd 63 c2 8c bc 81 c5 fc bd
       0.023688326 -0.03977357 -0.017182535 -0.123423584
000040 bb 67 15 bd 56 75 75 bd 3f 50 c0 3d 40 0d 71 3d
       -0.03647588 -0.059926353 0.09390306 0.058850527
000050 02 4f 81 3b 9d bd 68 bd 75 8b 0f 3d e9 06 b1 bc
       0.003946186 -0.056821454 0.035045106 -0.02160974
000060 8c b1 a0 3c dc 02 6e bd c3 c5 c7 bd 66 d6 94 3c
       0.019615911 -0.058108196 -0.09754517 0.01816864
000070 73 04 4c bd 45 87 6e 3d 77 c7 d6 3c 75 8e 67 bd
       -0.04980893 0.05823447 0.02621816 -0.056532342
000080 3f bc f5 3d 50 3a 37 bd 55 d5 b8 3d 4b da c7 3d
       0.11998796 -0.044733346 0.09025065 0.09758433
000090 c8 60 2d 3d e8 b7 14 bd 28 50 cc bd c7 e6 9d 3d
       0.042328626 -0.0363082 -0.09976226 0.07710033
0000a0 75 ae 0c 3d fd 4c 4a 3d 82 d6 4c 3d 9b 95 99 bd
       0.034346063 0.049389828 0.050009258 -0.07499238
0000b0 1b 3b b3 bd 88 8a 8c 3d 86 3a e0 3d 33 b4 98 3d
       -0.08751508 0.0686236 0.109486625 0.07456245
0000c0 ce 3e 83 bd ac 04 86 bc dd ec f2 3d c7 de 94 bd
       -0.064084634 -0.01635965 0.11861584 -0.07269054
0000d0 ce 95 cc 3d 38 77 74 3d 5c 7b a9 3d f0 9b 9b bd
       0.099895105 0.05968401 0.08275482 -0.07598102
0000e0 52 a0 a7 3d 7b 2b f9 bd df ec dd bd 46 10 6b bd
       0.081848755 -0.12166496 -0.10836195 -0.057388566
0000f0 10 7f e7 3d cc 2d ef bd 01 ce ac 3d ce 6e 97 3d
       0.11303532 -0.11678657 0.084377296 0.07394181

rnn.bias_hh_l0 f4 [64]
000000 3b 7e ae 3d d3 1b 82 3d d3 18 c3 3c 17 55 ca bd
       0.0852017 0.06352963 0.023815548 -0.09879511
000010 ff e1 12 3d 7d 29 11 bd de 81 cd 3d a3 a9 1d 3c
       0.035860058 -0.035439957 0.10034536 0.009622964
000020 1d 05 81 bd a8 0d ba 3d cb 95 49 3d cf 95 4b 3c
       -0.062998034 0.09084636 0.04921512 0.012425854
000030 ad dc 87 bd 2f 2a ad bd 47 37 ef bd 8a c8 80 3d
       -0.066338874 -0.084553115 -0.11680465 0.0628825
000040 34 2e b7 3d ec 1f e4 3c b2 b4 1c bd 4f ba 14 bc
       0.089443594 0.027847253 -0.038258262 -0.009077623
000050 6b 90 46 3d 32 df ac bd 73 d2 84 bd 97 1b 82 3c
       0.04847757 -0.084410086 -0.064854525 0.015882296
000060 82 a3 91 3d 58 3a 20 bd f6 8b af bd 58 c9 8a 3d
       0.07111265 -0.03911814 -0.08571617 0.067766845
000070 96 12 35 bc e5 30 33 3d 17 e2 a6 bb b1 6c 0b bd
       -0.0110517945 0.0437478 -0.00509287 -0.034039203
000080 cf f1 c2 bd 08 89 66 bb af 52 f5 bd 7f 88 cf 3d
       -0.095187776 -0.0035176892 -0.11978661 0.101334564
000090 d9 6b dd bd 58 48 51 3d 0e 13 15 3d 34 8b e9 bb
       -0.10811586 0.051094383 0.036395125 -0.00712719
0000a0 1d 34 6e bc 17 ed 96 bc cc 63 41 3d 3e b8 bf bc
       -0.014538792 -0.0184236 0.047214314 -0.023403283
0000b0 9b 90 3f 3d 50 e9 eb bd 66 94 ba 3d 81 95 c8 bd
       0.046768766 -0.1151911 0.09110336 -0.097941406
0000c0 e0 6f 0b 3d a2 fc 93 3a 2d 9c eb bd 71 65 2c 3d
       0.03404224 0.00112905 -0.115043975 0.04208893
0000d0 f8 74 bc bd 20 a3 3b bd 00 a9 d0 3d 03 f0 9e 3d
       -0.092019975 -0.045809865 0.10188484 0.07760622
0000e0 b0 b0 e2 3d ce b1 33 3c c7 db ba bd cf fe ff 3d
       0.11068857 0.010967685 -0.091239505 0.12499773
0000f0 28 a3 cf 3d c6 84 b4 bd ab 78 8f bd 5d a5 bf bc
       0.101385415 -0.08814387 -0.070054375 -0.023394281

rnn.weight_ih_l1 f4 [64, 64]
000000 0b 8d 14 3d a5 14 7c 3c 24 72 97 3d ea c1 6d bd
       0.03626732 0.015385781 0.073948175 -0.05804626
000010 9a c6 8e bd 34 80 fa bd bc fe 7a bb 1d 82 80 bd
       -0.06971474 -0.12231484 -0.0038298806 -0.06274817
000020 a4 e8 b7 bd 44 e5 9b bc ae 1c 97 3d 15 18 90 3d
       -0.089799196 -0.01903022 0.07378517 0.07035843
000030 e2 bd 0e bc 30 3d 14 bd 8d 2f fa 3c d5 e7 20 bd
       -0.008712264 -0.036191165 0.030540252 -0.039283592
000040 46 df ee bd 29 eb f6 3d 7d 09 e6 3d 5d e8 08 3d
       -0.1166368 0.12056572 0.112322785 0.033424724
000050 28 07 d8 bc 72 3e 56 bd 54 73 df bc 36 fd 04 3c
       -0.0263706 -0.052305646 -0.027276672 0.008117011
000060 25 71 10 3b 56 23 ce 3d a4 f6 9c bd cf e4 c9 bb
       0.0022040096 0.100653335 -0.076642305 -0.0061613093
000070 ea e2 f2 3d db ff 81 bc e0 09 d4 bd b8 8a 98 bd
       0.11859687 -0.015869072 -0.10353446 -0.074483335
000080 6b 30 d3 bd d3 95 d9 3d 97 f1 6a 3d fe 61 66 bd
       -0.10311969 0.1062428 0.057359304 -0.056245796
000090 61 e9 3e 3d ee 69 b7 3d ba 1b cb 3d 82 c7 a3 3d
       0.046609286 0.08955751 0.09917398 0.079970375
0000a0 5a a5 b9 bd 2f 8c f9 bc 10 58 c9 3d 3c d3 1b 3d
       -0.090647414 -0.030462353 0.0983125 0.038043246
0000b0 7c 62 80 bb 4e e7 b4 bd d1 a4 0d bd 5d 63 d9 bd
       -0.0039179903 -0.0883318 -0.03458101 -0.10614655
0000c0 ec 24 cb 3d 8c 11 d5 3d 29 44 18 3d 2e f9 4e bb
       0.09919152 0.104037374 0.037174378 -0.0031581628
0000d0 62 f9 8b bd 6b 52 c2 3d 87 1b e5 bd 1e 59 c0 3d
       -0.06834675 0.09488376 -0.11186891 0.09391998
0000e0 3d 6c c6 bc dd 38 c8 bd b7 3b 6d 3d 3f f6 bc 3c
       -0.024221534 -0.09776471 0.057918277 0.023066638
0000f0 71 63 39 bd c5 79 f7 3c 74 e2 ac 3d 22 6b 8d 3d
       -0.04526085 0.030209431 0.0844163 0.069051996
000100 a3 43 56 3d f1 18 3f 3b 11 d2 b1 3d 46 da f2 3d
       0.052310597 0.0029159153 0.08682645 0.118580386
000110 4e 31 fd bd 57 28 cb bd 0d 8a cc 3d 6e 8a df 3b
       -0.1236292 -0.099198036 0.099872686 0.006821922
000120 93 dd b3 3a 37 6b a7 bd 2e fd 91 3c 19 09 87 bc
       0.001372265 -0.081747465 0.01782092 -0.01648383
000130 6e 58 79 bd 92 57 67 bd ef 80 a6 ba 2a 68 b8 bd
       -0.06087535 -0.056479998 -0.001270322 -0.09004243
000140 67 b4 5b 3d c8 e0 4d 3d 70 6d d0 3c 1c df de bd
       0.053638842 0.050263196 0.025442809 -0.108823985
000150 bf d1 fc bd 59 50 3f bc 68 7a 16 3d b3 fa 44 bd
       -0.123446934 -0.011676871 0.03673783 -0.048090648
000160 ca dd b2 bd 33 1f e9 3c 8a a1 f8 bd eb 86 29 3d
       -0.08733709 0.02845726 -0.12140186 0.041388433
000170 f7 5b ef 3d 18 3d 77 3d 0d 4e 40 bc fa 04 29 3d
       0.11687463 0.060360998 -0.011737359 0.04126451
000180 94 d5 27 bd 4f d2 3c bd 60 96 54 3d 2f 5c 9b bd
       -0.04097517 -0.046099003 0.05190122 -0.07585942
000190 36 22 bb 3d 82 c5 72 3d dc dd 2e 3d a9 7e ef 3d
       0.091373846 0.05927039 0.04269205 0.116940804
0001a0 ac 55 4a 3d 47 ee 86 3d a2 9b 8a 3c c8 02 70 bb
       0.04939811 0.065884165 0.016919915 -0.0036622752
0001b0 d8 72 2a 3d 01 16 77 3d db d4 38 3d 57 2a 8d 3d
       0.04161343 0.06032372 0.04512487 0.06892841
0001c0 f4 50 4b bd 7c 70 e2 3a 91 43 dd bd 51 c3 96 3d
       -0.04963775 0.0017275955 -0.10803903 0.073614724
0001d0 eb ea 58 bb 7b df ab bd bf aa e3 bc ac c7 9b 3d
       -0.0033099006 -0.08392235 -0.027791379 0.07606444
0001e0 16 bd b1 bd a0 6f fc bd be 44 ed bd d9 3a 4c bd
       -0.086786434 -0.12325978 -0.11585377 -0.04986081
0001f0 3e dc 02 bd a5 70 ad bc 6c 4f d4 bb 84 37 78 3d
       -0.03194832 -0.021171877 -0.0064791944 0.06059982
000200 67 92 f4 bc ac ab 3c 3d d0 5b 98 bd 69 a5 c7 3d
       -0.029854966 0.046062157 -0.07439387 0.09748346
000210 57 38 d9 3d c2 8f d0 bd 3e 46 26 3d da 3e 6c bd
       0.10606449 -0.101836696 0.040594332 -0.057677127
000220 a6 dc d3 bd 7a 10 81 3d fa 24 ac bc 4e a1 81 bd
       -0.1034482 0.06301971 -0.021013726 -0.063295946
000230 4a c6 26 3d 71 69 e0 bd 06 b4 fd bc 8f d4 81 3d
       0.040716447 -0.10957611 -0.03096963 0.063393705
000240 53 15 1f 3d 07 85 ef 3d b3 e4 df bc ee b3 9c 3d
       0.038838696 0.11695295 -0.027330732 0.07651506
000250 b4 50 d5 3d 2e c1 82 3d 31 d3 94 bd 72 b1 97 bd
       0.104157835 0.06384502 -0.07266844 -0.07406892
000260 eb 9c 05 bb 82 08 fa bd 52 88 93 3d 5f cb db bd
       -0.002038772 -0.12208654 0.072037354 -0.10732149
000270 50 e9 d8 3d a6 eb 19 3c 3e 20 73 3d b6 28 96 bd
       0.10591376 0.009394562 0.05935692 -0.07331984
000280 15 ea d0 3d 65 1f a1 3d 2c b8 76 3d a4 2a d9 3d
       0.102008976 0.07867316 0.060234234 0.10603836
000290 19 35 04 bd 03 4e d5 3d df 0b 1b bd 0d f7 14 bd
       -0.0322772 0.1041527 -0.037853118 -0.03636842
0002a0 7b 37 e3 3c 04 c1 d5 bd 24 f0 4f bd 81 df ac 3d
       0.027736416 -0.104372054 -0.050766125 0.084410675
0002b0 a0 c5 33 3d 03 b3 f4 bd 21 b0 62 bd 12 f0 9b 3d
       0.04388964 -0.11948206 -0.05534375 0.07614149
0002c0 e7 26 f3 bb 28 58 5a bd a9 ec 8c bd ce f1 f0 3d
       -0.007420409 -0.05330673 -0.06881077 0.117648706
0002d0 ba 2a 0b bd ef f0 a8 bd ea fb 78 bd 91 90 88 3d
       -0.033976294 -0.082490794 -0.06078712 0.06668199
0002e0 96 d8 94 3d 67 59 c4 bd 01 61 ae bd 7a 7b a5 3d
       0.07267873 -0.09587365 -0.08514596 0.08080192
0002f0 53 21 1e bd dd 9a 89 bd a9 63 8e ba 59 63 20 3d
       -0.038606 -0.06718991 -0.0010863441 0.039157245
000300 2d 36 01 be e7 e4 80 3d ed d0 d8 3c 27 d2 ef bd
       -0.12618323 0.0629366 0.026466811 -0.11710005
000310 4c 22 d4 3d 29 47 e4 3d d8 54 d2 bd 49 fb 9f 3b
       0.10358104 0.11146385 -0.10270089 0.0048822504
000320 7b e8 6f 3c 7e aa 4f 3d 8e 90 ed 3d cd 97 9f bd
       0.01464283 0.050699703 0.11599837 -0.077926256
000330 79 99 7d bd 09 b6 ce 3b 7d a5 3c 3c 17 82 86 ba
       -0.06191394 0.0063083214 0.011514065 -0.0010262158
000340 44 66 d4 3d 92 47 f1 3d 8d c1 c3 bd 78 14 cc 3d
       0.10371068 0.11781229 -0.09558401 0.099648416
000350 6a 92 4a bd 3e e2 28 bd 69 fe 52 3d 8e 8e af bd
       -0.049456038 -0.041231386 0.051512156 -0.08572112
000360 51 93 a6 3d 09 04 bc bd 40 f7 3d 3d df 24 09 be
       0.08133567 -0.09180457 0.046378374 -0.13392971
000370 2d da f6 3d ee 18 e4 3d bd 04 dd bd 47 9e a1 bd
       0.120533325 0.111375675 -0.107919194 -0.07891517
000380 1e bb a4 bd 92 63 05 3d 9a 93 a3 bd 5e 24 88 3c
       -0.08043502 0.03256566 -0.07987137 0.016618904
000390 10 9b d3 3d 56 f1 ce bb 8b 96 c5 3d ab c3 53 3c
       0.1033231 -0.0063153906 0.096478544 0.012925069
0003a0 33 31 ce 3c 87 7e 9d bd 1a 7e 92 bb fd 2f 1f bd
       0.025169944 -0.07690149 -0.004470599 -0.038864125
0003b0 c8 0d e5 3c 58 1d f1 3c 62 08 c1 bd 71 2e 1f bd
       0.027960673 0.029432938 -0.09425427 -0.03886265
0003c0 eb 65 64 bc 64 4f 91 3d ec 7b 4a bd 62 02 ba bb
       -0.013940315 0.07095221 -0.049434587 -0.0056765536
0003d0 f0 24 97 bc 78 5a c9 3d 7a 56 04 bd ed 32 02 bb
       -0.01845023 0.09831709 -0.032309033 -0.001986678
0003e0 b8 30 e3 3d 1f 79 b3 bd 5a 01 02 bd e8 fc e6 bc
       0.11093277 -0.087633364 -0.03173957 -0.028196767
0003f0 d2 cf 98 bc 46 e6 f3 bd 64 f0 c1 3c 1a 5a fc bc
       -0.018653784 -0.119091555 0.023674197 -0.030804683

rnn.weight_hh_l1 f4 [64, 64]
000000 35 64 4a 3d 40 c9 e0 3c 92 c3 ad 3c bb e9 72 bc
       0.04941197 0.027439713 0.02121142 -0.0148262335
000010 ec d7 c3 bd 62 c0 51 3d 76 ff 31 bd 8c f5 ef bb
       -0.09562668 0.05120886 -0.043456517 -0.0073229726
000020 9e cd 8e 3b 8a c0 20 bc e0 1a d7 bd f7 52 cd bd
       0.0043580076 -0.00981153 -0.10503173 -0.1002559
000030 ea 3e 83 bd ca 71 55 3d d4 0f c5 3d 42 3b bd bd
       -0.06408484 0.05211047 0.096221596 -0.09239818
000040 20 a8 f2 3d c3 48 62 bd 99 92 f6 3d 60 59 18 bc
       0.118484735 -0.055245172 0.1203968 -0.009298652
000050 f2 f3 7a bd 16 b5 fb 3d 58 4d 12 3d d0 8c 95 3d
       -0.0612678 0.12290399 0.035718292 0.073022485
000060 88 3e ac 3d 8b a7 64 bd 47 69 db bd 4c 4f f2 3d
       0.084103644 -0.055823844 -0.107134394 0.11831531
000070 02 69 d5 3c 45 ba a9 3d 10 e1 ba bd c5 3e 43 b8
       0.026051048 0.08287481 -0.091249585 -4.655008e-05
000080 a1 55 83 3a 7f 5d f2 bd 52 d0 e9 3d 2f 70 86 3d
       0.0010020026 -0.11834239 0.11416687 0.06564366
000090 33 5b 23 3a 0f 6b 53 3d 9a 38 b3 3d 00 d2 05 3d
       0.0006231546 0.05161577 0.0875103 0.032670975
0000a0 b9 3c a7 bd f5 d4 d7 3d 89 6e 4f bd 16 c9 c7 bd
       -0.08165879 0.10538665 -0.050642524 -0.09755151
0000b0 22 cc d9 bc 48 aa 6e 3c d8 56 ad 3c 9e 69 c0 3d
       -0.026586596 0.014566965 0.021159574 0.09395145
0000c0 b8 e1 df 3d 64 3b e6 bc 1d d9 4d bd 31 95 62 3d
       0.10931724 -0.028104492 -0.050255883 0.05531806
0000d0 4b 29 55 bd 89 a3 d1 3d 78 1d 32 bd 51 51 28 bd
       -0.052041333 0.1023627 -0.043485135 -0.041093174
0000e0 ee 3f f4 3c d7 b9 c4 bc da 08 84 3d 62 af 53 bd
       0.02981564 -0.024014397 0.06447001 -0.05168093
0000f0 f5 b6 b3 3d aa fa 7d bd 85 35 12 3d 72 46 a5 bd
       0.08775131 -0.06200663 0.03569557 -0.08070077
000100 86 d0 6a 3d c2 cd f5 3d f3 e6 06 3c b7 06 f4 bd
       0.05732777 0.12002136 0.0082337735 -0.11915343
000110 1b 82 f8 3d a9 05 ba 3d 84 2e c3 3d 20 b7 c9 3c
       0.12134191 0.09083111 0.095303565 0.024623454
000120 fe b5 f5 bd ec d3 de 3d 85 e1 24 3d 8b 36 ea 3d
       -0.11997603 0.10880265 0.040254135 0.114361845
000130 e5 20 00 3e f4 c0 1d 3a 63 72 a8 bd ea 0e 8f 3d
       0.12512548 0.0006017827 -0.082249425 0.069852665
000140 eb 63 c5 3d 7e 09 db bd 18 cc 54 3d 01 39 e8 3b
       0.096381985 -0.1069517 0.05195245 0.0070868735
000150 89 41 64 bd b3 dd c2 3d fe 27 cf 3d 4b a8 b0 3d
       -0.05572656 0.09514942 0.1011505 0.08625849
000160 5a 70 d3 3b 95 20 f6 bc 50 42 88 bd 73 c8 cf 3d
       0.0064526023 -0.030044833 -0.06653273 0.101456545
000170 a1 37 f1 bd 20 2e 2e bd f8 96 21 bd fb c0 cc 3d
       -0.117781885 -0.042524457 -0.039450616 0.099977456
000180 4f 5b 6a bc c1 1c dc 3c ea 14 93 3d ea c0 da 3d
       -0.014303996 0.02686918 0.071817234 0.10681327
000190 4c e7 e4 bd 96 61 5e bc f6 ec b4 bd c0 32 f9 3d
       -0.11176929 -0.013573071 -0.08834259 0.12167883
0001a0 2c 67 92 3b 22 76 fd 3d ed ca c9 bd 80 a4 f9 bd
       0.0044678655 0.12376048 -0.09853158 -0.12189579
0001b0 18 e8 1f bd ca 4f c1 3d 4e 0a 24 bc 9b 5a a4 3c
       -0.0390397 0.09439047 -0.010012222 0.020062735
0001c0 d0 ca 89 3d 77 f3 93 3c 43 d6 87 bd b4 bb a3 3d
       0.067281365 0.018060429 -0.06632664 0.07994786
0001d0 aa 1b 98 3d 50 0a a7 bd a9 a7 ac bd 45 de 77 bd
       0.074271515 -0.08156264 -0.08430416 -0.060514707
0001e0 50 2a 02 bd 90 00 18 3d c4 77 00 3e eb 95 31 3d
       -0.031778634 0.03710991 0.12545687 0.043355864
0001f0 8e 1c 22 bd 4c 9c 0c 3d aa 67 4a 3c 4b a8 bf 3b
       -0.039578013 0.034328744 0.012353817 0.0058489195
000200 21 ea 0b 3d 72 ae 00 3e 3b 88 6f 3d 02 a9 0d bd
       0.03415883 0.12566546 0.05847953 -0.034585007
000210 77 98 47 3d 69 df ff bd 9a a1 1a 3c 28 cb d2 bd
       0.048729386 -0.12493784 0.009437943 -0.10292655
000220 dc 65 fc 3c 79 0f b1 bd 2e e6 b6 bd ea 2e a4 3d
       0.03081029 -0.08645529 -0.08930622 0.08016761
000230 3f a0 e7 3d b3 47 d1 bc 64 ab 35 3d 70 8d 16 3d
       0.113098614 -0.025546884 0.044352904 0.03675598
000240 c7 a6 81 bd c9 57 82 3d d7 ec dc bd cc 9a a7 3d
       -0.063306384 0.063644 -0.10787361 0.08183822
000250 c4 b6 2c bc 58 65 9d 3c 7d 1d c6 bd 77 6d 74 bb
       -0.010541622 0.019213364 -0.09673593 -0.0037296691
000260 90 5f 81 3d b9 6b 76 bd 12 d6 0a 3d df e6 4c bd
       0.06317055 -0.060161326 0.03389556 -0.050024863
000270 20 84 e8 3d 9f 4f db 3d 0d 21 db bc 15 ea 73 bd
       0.11353326 0.10708546 -0.026749158 -0.05954941
000280 cb 01 e5 bb 39 9c f3 bd 62 e4 58 bd 95 b9 da bd
       -0.006988739 -0.118950315 -0.052952178 -0.10679928
000290 35 59 85 bd cf c6 89 3d e3 79 70 bb 78 26 d7 bd
       -0.065111555 0.06727373 -0.0036693744 -0.10505384
0002a0 27 3a 4c bd 75 35 26 bc 09 84 b8 bd bf 16 15 3c
       -0.049860146 -0.010144581 -0.09009559 0.009099661
0002b0 6a 12 e5 3d bc f9 cd bd 0f 16 7f 3d ea 09 d4 3d
       0.11185153 -0.10057399 0.062276896 0.103534535
0002c0 41 21 0e 3d 45 34 40 3d 24 e8 67 bd c0 4a 15 3c
       0.034699682 0.046924848 -0.05661787 0.00911206
0002d0 1f 2a a6 bd 0d 51 52 3d fb f6 6f 3d e4 a5 b9 3d
       -0.08113503 0.051346827 0.05858515 0.09064844
0002e0 e7 6c 88 3d fe 55 d3 bd 1a 01 8f bd e9 72 f1 bd
       0.066613965 -0.10319136 -0.06982632 -0.117894955
0002f0 2c dd 9e 3d 24 da 10 bc 44 ce 7d 3d b4 8f f7 3d
       0.07757029 -0.008841071 0.06196429 0.12087956
000300 b3 c8 d7 bd 4f 35 b3 3c e3 38 ae bd 4d 36 5e 3d
       -0.10536327 0.021876005 -0.08506944 0.054251004
000310 c3 9a 13 3d 8f 06 0a 3d 81 53 e2 3c 93 f2 eb bd
       0.036036264 0.03369766 0.027627708 -0.11520877
000320 21 81 cb 3d a1 0e b8 bc 8d 38 fd 3c 26 cc 3d 3d
       0.09936739 -0.022467913 0.030910755 0.04633727
000330 72 b7 a0 bd ba b5 df 3c a2 98 c1 3d b1 2e 45 bb
       -0.078474894 0.027308334 0.094529405 -0.0030087645
000340 7d 45 af bd d5 28 a9 bd 01 7f ab 3d a6 14 59 bd
       -0.08558176 -0.08259741 0.083738334 -0.052998208
000350 50 a2 92 3c 1a 47 ef 3d 38 0c 9d bc b3 de a1 bd
       0.017899662 0.116834834 -0.019170865 -0.07903805
000360 17 1c c9 3d b1 15 e9 3d bc f0 85 ba 94 46 cf 3d
       0.09819811 0.113810904 -0.0010218839 0.101208836
000370 76 58 45 bd e6 f6 c0 bd 74 d3 39 bd c6 66 84 bd
       -0.048180066 -0.09422092 -0.045367673 -0.06464915
000380 04 61 fc bc 07 e5 e5 bd 76 ed 1e bc 13 f0 54 3d
       -0.03080798 -0.11225324 -0.00970017 0.051986765
000390 5b 47 e0 bd f4 a5 f4 3c 49 77 79 3d 60 f6 8e 3d
       -0.1095111 0.029864289 0.060904775 0.06980586
0003a0 c2 df f1 bd 52 99 8f bd a0 f4 e7 bd 87 7d 8d 3d
       -0.118102565 -0.070116654 -0.113259554 0.06908708
0003b0 cc e2 1c bb 61 50 07 bd a7 11 8f bd 65 8b e0 3d
       -0.0023938892 -0.03303564 -0.06985789 0.109640874
0003c0 d8 16 82 bb a3 fd 01 3e 92 d6 b3 3d b4 aa 2b 3c
       -0.0039700083 0.12694411 0.087811604 0.0104777105
0003d0 73 6b c9 bd 03 78 8a bd b7 ec ea 3d b3 3f 9b bc
       -0.098349474 -0.06761172 0.11470931 -0.018951273
0003e0 87 20 2e 3c 94 19 ef 3d 40 ce 43 bd 24 cc 83 3d
       0.010627872 0.116748005 -0.047804117 0.06435421
0003f0 d4 71 ea bd f1 90 be bd 50 7f ab 3d 71 a3 e0 3d
       -0.11447492 -0.09304989 0.08373892 0.10968674

rnn.bias_ih_l1 f4 [64]
000000 61 96 92 3d 07 bc 8c bd 15 0d 5a bd fe b1 b9 3d
       0.07157589 -0.06871801 -0.053235132 0.090671524
000010 02 59 c3 bd 7f ca a1 3d 3d fa ae 3d a5 53 03 3e
       -0.09538461 0.07899951 0.08543823 0.12824877
000020 df 70 85 3d 5d 5a 5f bc 01 95 b0 bd 7a 31 f7 bd
       0.06515669 -0.013632384 -0.0862217 -0.12069984
000030 19 2b ec bd e6 f9 f4 bd 74 3b 9b 3d 56 e8 a4 3d
       -0.11531658 -0.11961727 0.07579699 0.08052127
000040 0f f8 8e bd 2e 30 8f 3d d3 21 b7 bd b0 66 07 bc
       -0.06980907 0.069916114 -0.08941998 -0.008264229
000050 82 c6 27 bd 03 df 8f bb 7a 95 ec bb cf b5 d6 3c
       -0.040960796 -0.0043905987 -0.0072199674 0.02620974
000060 6f 63 ad bc 87 80 e1 bd 6a db ad bd d2 11 96 3d
       -0.021165578 -0.11010843 -0.084891155 0.07327618
000070 2a d6 c3 3d dc db 93 3d 68 fc ce 3d f9 75 a5 3d
       0.09562333 0.07219669 0.101067364 0.08079142
000080 0b ca ca 3d 97 2b af bb fb 86 c9 bd dc 63 c6 3a
       0.09901818 -0.0053457725 -0.098401986 0.0015135962
000090 14 8c 13 3d 4b d3 f1 3d ed 75 92 bd b3 a0 e4 bd
       0.03602226 0.11807879 -0.07151399 -0.111634634
0000a0 01 50 68 bd 80 72 d0 bd 17 e3 b6 3b 03 61 4b bd
       -0.056716923 -0.10178089 0.0055812704 -0.049653064
0000b0 aa 04 9b 3d 42 45 6e 3d 59 82 11 bd 93 de f0 bc
       0.07569249 0.05817152 -0.0355247 -0.029403007
0000c0 c0 99 f5 bc 92 69 1b bd a2 40 09 bd af 43 d9 bd
       -0.02998054 -0.037942477 -0.033508904 -0.10608613
0000d0 25 3a 96 bd e1 8e 02 3d 9a f5 cf bd 43 e5 43 bd
       -0.07335309 0.03187454 -0.10154267 -0.047826063
0000e0 7c d6 f1 bc 3c 2a 21 bd 7a 98 ee 3d a5 5c 74 bb
       -0.02952122 -0.03934692 0.11650176 -0.0037286666
0000f0 15 94 1b 3d 77 82 75 3c da 6f 29 3d b4 c0 23 3d
       0.03798302 0.0149847185 0.041366436 0.039978698

rnn.bias_hh_l1 f4 [64]
000000 a9 fd d8 3c 6a 7b e2 bd 1e 61 78 bd 1a ac ea 3d
       0.026488142 -0.110586956 -0.060639493 0.11458607
000010 62 06 9a bd b2 31 d6 bd c2 5f b3 bd cb f1 c9 bd
       -0.07520749 -0.104586974 -0.08758499 -0.098605715
000020 75 59 2a 3d b9 76 e4 bd d8 3e b0 bd 99 d9 f9 3d
       0.04158922 -0.11155457 -0.086057365 0.121997066
000030 2b 13 e9 bd b6 b3 ef bd a1 26 83 bd dd b9 39 bc
       -0.11380609 -0.11704199 -0.06403852 -0.011335817
000040 fe e9 c4 3d ac ca f3 3d 13 09 dc bd 91 43 3a bc
       0.09614943 0.11903891 -0.10743918 -0.011368648
000050 8e df 55 bd 0f 5b 03 3e df 84 f0 3d 0c 01 32 bd
       -0.05221515 0.12827705 0.11744093 -0.04345803
000060 f2 c2 af bd f6 4b 30 bd b3 88 85 3d 70 54 7f 3d
       -0.08582105 -0.043041192 0.06520214 0.062336385
000070 3a c7 1d bd ac 66 a8 3d ec e9 10 bd 94 16 70 bd
       -0.038520075 0.08222708 -0.035379335 -0.058615282
000080 15 b8 80 3b 9e ab 3d 3d 51 9d fe 3d bc 63 af 3d
       0.0039281943 0.046306245 0.124323495 0.08563945
000090 e8 8e 8b 3d 9b 02 c2 bc be b6 b0 bc 60 03 de bd
       0.068143666 -0.023682883 -0.021571513 -0.108404875
0000a0 25 c9 74 bc aa 86 ee 3d 48 12 34 3d ec af 11 3c
       -0.014940535 0.11646779 0.043962747 0.008892041
0000b0 c6 10 cd bd 2e 29 01 be b3 da ac 3d b0 30 d6 3d
       -0.10012965 -0.12613365 0.08440151 0.10458505
0000c0 ed 5b c4 bc 43 a1 cb bd 3a 9c 44 3c 05 ba 14 bd
       -0.023969615 -0.099428676 0.012000138 -0.036310215
0000d0 d0 6d 88 bc a5 80 d9 3d a4 55 de 3c 27 6d 1a bd
       -0.016653925 0.1062024 0.027140446 -0.037701752
0000e0 d7 a9 93 3d cf a8 b2 bd 52 75 bf bd 63 5e 6d bb
       0.07210129 -0.08723604 -0.09348549 -0.003621959
0000f0 4f cc 0c bd 37 1d cb bb 1f 9f 1f bd 11 1d c2 bd
       -0.03437453 -0.006198551 -0.03897011 -0.094782

batch_norm.weight f4 [64]
000000 0d a7 7f 3f 1c 3c 7e 3f a5 e5 7f 3f 19 15 80 3f
       0.99864274 0.9931047 0.99959785 1.0006438
000010 02 2c 7f 3f 5e 2a 80 3f bf 7f 80 3f 30 4d 80 3f
       0.99676526 1.001293 1.0038985 1.0023556
000020 fa a1 7f 3f f9 0f 7f 3f 7c 54 80 3f 68 52 7e 3f
       0.9985653 0.9963375 1.0025783 0.9934449
000030 9c bd 80 3f 62 72 80 3f f7 1d 7e 3f c6 d6 7f 3f
       1.0057864 1.0034907 0.9926447 0.99937093
000040 1c 25 7f 3f bf 9d 80 3f 8e 43 7f 3f 03 6e 7f 3f
       0.99666 1.004814 0.99712455 0.9977724
000050 db e2 7f 3f aa 9d 80 3f 60 c8 7f 3f 62 81 80 3f
       0.9995553 1.0048115 0.99915123 1.0039485
000060 95 9c 80 3f 5b e6 80 3f c9 b1 7f 3f 00 0a 80 3f
       1.0047785 1.0070299 0.99880654 1.0003052
000070 e3 a3 80 3f 2d c9 7f 3f 64 25 80 3f ac fa 7f 3f
       1.0050014 0.99916345 1.0011411 0.9999187
000080 54 37 80 3f 25 11 7f 3f 8a 35 80 3f 03 26 7f 3f
       1.0016885 0.99635535 1.0016339 0.99667376
000090 8c ae 80 3f 06 26 80 3f d4 25 80 3f 36 b0 80 3f
       1.0053267 1.0011604 1.0011544 1.0053775
0000a0 ba 5e 7f 3f 26 c6 7e 3f c2 8e 80 3f 1f 30 7f 3f
       0.99753916 0.995211 1.0043566 0.996828
0000b0 cc 6d 80 3f 9e 49 80 3f 58 8b 80 3f a5 82 7f 3f
       1.0033507 1.0022466 1.0042524 0.9980872
0000c0 4b 0d 7f 3f fa 23 7f 3f cc 13 80 3f f4 0f 81 3f
       0.9962966 0.9966427 1.0006042 1.0082994
0000d0 5e 3c 7f 3f 34 0f 80 3f 16 eb 7f 3f 7f 2e 7f 3f
       0.9970149 1.000464 0.9996809 0.9968032
0000e0 c0 2f 80 3f 03 ad 80 3f cc 09 80 3f 0c fc 7f 3f
       1.0014572 1.0052799 1.000299 0.9999397
0000f0 d3 6d 80 3f 94 5e 80 3f 80 10 80 3f 1a ee 7f 3f
       1.0033516 1.0028863 1.0005035 0.9997269

batch_norm.bias f4 [64]
000000 d5 32 63 3b 77 86 ed ba 72 e8 3c bb 82 5d 68 bb
       0.003466775 -0.0018121739 -0.0028825072 -0.0035456126
000010 e0 e1 fd ba 0f 87 37 bb 2d 15 cd 38 7f 36 c9 3a
       -0.0019369684 -0.0028004085 9.779106e-05 0.0015351324
000020 66 3c a8 3a 0c d5 56 3a 0b 0a 80 39 6e c4 16 3a
       0.0012835383 0.00081951986 0.00024421545 0.0005751316
000030 48 a4 a2 bb 6a 52 35 b9 12 c1 40 ba bd 6c 0f 3a
       -0.0049634315 -0.00017292207 -0.00073529885 0.00054712204
000040 a9 22 27 bb c1 b2 79 3b 2d 63 61 3b 1c ac ad 3b
       -0.0025502837 0.003810093 0.0034391389 0.005300058
000050 c1 1d f2 ba be 58 40 bb 9b 9c 15 3b 78 c8 29 bb
       -0.0018472002 -0.002934977 0.002282894 -0.0025906842
000060 e9 7f 04 bb 64 59 76 3b 29 73 f2 ba 23 3f 94 3b
       -0.0020217842 0.0037589902 -0.0018497455 0.004524128
000070 42 2a 45 3b ab 66 11 bb 63 8a 84 3b 12 55 7c bb
       0.0030085002 -0.002218644 0.0040448173 -0.0038502854
000080 1a 66 3b 39 52 97 00 bb 43 0a 84 3b b9 5f 39 3b
       0.00017871746 -0.0019621444 0.0040295436 0.0028285815
000090 73 61 ad ba 67 87 f9 ba e2 61 62 3b df af f9 39
       -0.0013227895 -0.0019037545 0.0034543206 0.00047624015
0000a0 50 78 92 bb 8d f9 e6 3a 32 1c a1 3b c6 dc 0d 3a
       -0.004469909 0.0017621979 0.004916691 0.0005411621
0000b0 3e 25 43 3a 42 5b 2f bb 50 35 8f 3a b0 63 ff 3a
       0.0007444209 -0.0026757275 0.0010925923 0.0019484665
0000c0 75 79 5e 3b 5b b0 94 ba 93 23 d9 bb 2a 89 ec b8
       0.0033946906 -0.0011344062 -0.006626555 -0.00011278906
0000d0 c8 ee 69 bb 94 96 af bb 77 65 06 bb a9 c3 2b 3a
       -0.0035695303 -0.0053585265 -0.0020507255 0.0006552288
0000e0 40 ab ed ba 38 60 9f b8 a5 ad c1 ba 02 41 33 ba
       -0.0018132702 -7.599633e-05 -0.0014776482 -0.0006837995
0000f0 3a d6 f5 3a f1 58 13 3b 88 8f 52 3a 06 be 55 3b
       0.0018755861 0.0022483433 0.0008032252 0.0032614483

batch_norm.running_mean f4 [64]
000000 bd 9f 2a 3e 0a ee ed be 7d 82 ff bc a8 9a 90 3e
       0.16662498 -0.46470672 -0.031190151 0.28242993
000010 3b 10 17 be 3c a9 09 3e 86 d7 b4 bb 2e 30 76 3e
       -0.14752285 0.13443464 -0.0055188565 0.24041817
000020 b0 49 34 3e 13 99 58 be 51 30 19 be 30 5a 03 be
       0.17606235 -0.21152143 -0.14959837 -0.12827373
000030 c3 65 8b be dd 8b c0 be c8 09 83 3e 9b f4 2b 3e
       -0.27226076 -0.37606707 0.255934 0.16792528
000040 6e 78 a0 bc 47 de 15 3e c5 0d e4 be a5 49 3f bd
       -0.019588675 0.14635573 -0.44541755 -0.046701092
000050 73 77 86 bd 20 d6 94 3c 85 ff 4f 3e 65 ba 10 be
       -0.06565752 0.018168509 0.20312317 -0.14133604
000060 66 69 06 bc 25 8b 73 be 15 1e 63 3d 65 43 94 3e
       -0.00820384 -0.23783548 0.05544861 0.28957668
000070 57 c7 08 3c 6d 9d 96 3e 89 fc e4 bd 05 f1 a0 3b
       0.008348308 0.2941698 -0.1118098 0.0049115443
000080 80 ab 04 3d 49 3f 2c be 4a 1c 91 3c a5 d2 f7 3d
       0.032390118 -0.16821016 0.017713685 0.12100724
000090 35 b2 2f 3e 82 3f a2 3c 07 70 02 be 53 e8 8b bd
       0.17157824 0.019805674 -0.12738048 -0.06831422
0000a0 71 fe d3 bd 67 b3 c9 bd 3e 2d 54 bc 4c 3f 04 bd
       -0.10351265 -0.098486714 -0.01295024 -0.032286927
0000b0 6a a1 8a bc 13 07 40 3d e0 45 0c 3e b7 cb 11 3e
       -0.016922671 0.046881747 0.1369853 0.14237867
0000c0 10 13 c3 be 1d f9 44 bd dc 65 3f 3c af f9 c8 3d
       -0.3810048 -0.048089135 0.011682 0.09813248
0000d0 a3 92 7e be 32 c5 88 3e c8 3f 7b bd 4d 28 00 be
       -0.24860625 0.26712948 -0.061340123 -0.12515374
0000e0 ea 32 76 3d a0 31 0c be a0 b5 29 bd c1 e9 b2 3d
       0.06010715 -0.13690805 -0.041432977 0.08735991
0000f0 fc f5 be 3c 7c 37 8f bd 41 ad 5b 3e 60 d0 c0 bd
       0.023310654 -0.06993005 0.2145281 -0.094147444

batch_norm.running_var f4 [64]
000000 bf 34 7a 3c dc 9c 86 3c f0 0c 58 3c d1 bf 8c 3c
       0.015271365 0.016432218 0.013186678 0.017181309
000010 7f 07 83 3c d9 b1 4d 3c 55 a1 50 3c c7 e4 15 3d
       0.015994785 0.012554609 0.012733777 0.036595132
000020 b6 30 72 3c 75 ba 6f 3c c3 43 a4 3c 26 32 46 3c
       0.014782121 0.014631857 0.020051843 0.012096917
000030 04 06 8c 3c 50 b8 8a 3d 2d 6d a5 3c 8b 51 9a 3c
       0.017092712 0.06773436 0.02019366 0.01883771
000040 3b 34 e2 3c 8c c1 d3 3c 37 21 82 3c 2f d0 b8 3c
       0.027612796 0.025849126 0.015884979 0.022560207
000050 70 47 81 3c ee 97 f7 3c 46 4c 90 3c 46 e2 84 3c
       0.015781134 0.030223813 0.017614495 0.016221177
000060 9a d6 1b 3d bf cc 94 3c 1c 80 9c 3c 66 52 6f 3c
       0.038046457 0.018164037 0.019104056 0.014607048
000070 0f 74 e3 3c 87 5b b9 3c 17 89 4e 3c df 20 82 3c
       0.027765302 0.022626651 0.012605927 0.015884815
000080 4d fd 96 3c 19 9a 92 3d 79 4a af 3c 02 be 81 3c
       0.01843133 0.07158298 0.021397816 0.015837673
000090 4b 46 8b 3c 78 fb 0f 3d 67 0e 00 3d 82 9f 09 3d
       0.017001292 0.03515193 0.031263735 0.033599384
0000a0 e9 cc 74 3d 9a d7 a0 3c 1d d1 ac 3c 5c f4 99 3c
       0.05976573 0.019634057 0.021095807 0.018793277
0000b0 7e b0 ef 3c 68 85 93 3c 61 72 96 3c 4b 57 a3 3c
       0.029258963 0.018007949 0.018365087 0.019939085
0000c0 e6 17 4d 3c 4c c0 96 3c 06 8f f9 3c eb 1b 8e 3c
       0.012517905 0.018402241 0.030463707 0.017347297
0000d0 59 72 20 3d 73 02 38 3c 08 76 61 3c 24 71 f0 3c
       0.03917155 0.011231053 0.013761051 0.029350825
0000e0 77 78 05 3d 02 38 22 3d 80 4c 74 3c 19 5d 82 3c
       0.032585587 0.039604194 0.014910817 0.015913533
0000f0 9e 9d 92 3c 93 d3 b2 3c b9 2f 01 3d 2d c4 82 3c
       0.017897423 0.021829402 0.031539652 0.015962685

fc1.weight f4 [32, 64]
000000 12 d8 8e 3c 50 61 55 3d 63 38 b3 3d 5e a9 68 bd
       0.017437015 0.052094758 0.08750989 -0.056802146
000010 2d d8 a7 3d 97 a6 d1 3d df 88 e7 bd 7f 5b d1 3d
       0.08195529 0.102368526 -0.11305403 0.102225296
000020 d8 e8 ef bd 13 ab dc 3d 27 83 49 bd fc 20 3e 3d
       -0.11714333 0.10774817 -0.049197342 0.046418175
000030 a3 c2 7c 3c 49 4e b4 bd 38 44 16 bd a7 f7 a3 3d
       0.015427264 -0.08803994 -0.036686152 0.0800622
000040 50 06 d1 bd 49 19 96 bd 75 72 63 bd f0 1c e2 bd
       -0.10206282 -0.073290415 -0.055529077 -0.11040676
000050 0a 13 9b 3d a4 ac ae 3d f0 dd 8f bc 00 98 ec bd
       0.07571991 0.08529022 -0.017561883 -0.11552429
000060 82 07 72 3d 97 64 ca 3d 86 8f d3 bd ae f3 0c 3d
       0.05908919 0.09882467 -0.10330109 0.03441208
000070 25 72 37 bc b7 e8 fa 3d 66 80 9b bc 1d 41 e8 bc
       -0.011196648 0.12251418 -0.018982124 -0.028351361
000080 02 69 b9 3c 38 26 a3 bd 02 cb b2 3d e3 15 dc 3d
       0.02263308 -0.07966274 0.08730127 0.10746362
000090 fc 43 b3 3d e1 7c e1 3d a8 f0 e3 3d 83 cc f7 bd
       0.08753201 0.11010147 0.11129886 -0.120995544
0000a0 ff c0 24 3d c3 83 81 bd a7 8e f6 bd 68 07 f0 bd
       0.040223118 -0.0632396 -0.120389275 -0.11720163
0000b0 d6 ad c8 3d e2 fb 51 bd 83 4a e0 bd 95 90 02 3e
       0.097987816 -0.051265605 -0.10951712 0.12750466
0000c0 48 61 59 bd f0 79 9b bd 7a 14 2b bc 00 2b 0e bd
       -0.05307129 -0.07591617 -0.010441894 -0.034708977
0000d0 e7 96 8c 3d 0c a8 3c bb bc ef b2 3c a4 6f f2 3d
       0.0686472 -0.0028786687 0.02184283 0.118377
0000e0 65 3b 89 3d e2 d1 68 3c 6c 53 86 bd 42 b8 14 bc
       0.06700782 0.014210196 -0.0655888 -0.009077134
0000f0 8a 31 f0 3a 81 32 8f 3d 10 cc 8c 3d 62 46 40 3d
       0.0018325311 0.06992055 0.06874859 0.046942122
000100 90 f2 13 bd 81 ea d3 3d f9 a5 ae bd cf 07 5c 3d
       -0.036119998 0.103474624 -0.085277505 0.053718384
000110 6b 4d 2e bd ee a7 ed 3d ea d0 7a bb cf 1b 9c bd
       -0.0425543 0.11604296 -0.0038271495 -0.076224916
000120 e2 2d 64 3d ca f6 0c 3d ff 88 71 3a bc a5 bd bc
       0.05570782 0.034415044 0.00092138344 -0.023150317
000130 96 59 25 bc 74 d7 94 3d 7c c9 bb bd 13 19 07 bd
       -0.01009216 0.07267657 -0.091692895 -0.032982897
000140 00 ae cd bc ba dc a4 bc 90 11 4b bd 1d 67 bf bc
       -0.025107384 -0.020124782 -0.049577296 -0.023364598
000150 f8 80 eb 3b 4a c6 84 bd 6f 22 e0 bd a8 2f 2b 3d
       0.007187005 -0.06483133 -0.10944068 0.041793495
000160 b4 46 31 3d 6a e8 ec bb 1b 4c f5 3d 94 62 46 bd
       0.04328032 -0.0072298544 0.119774066 -0.048433855
000170 3a 69 fa bd f8 2c f0 3d 85 87 ba bb f5 e4 fe bc
       -0.122271016 0.11727327 -0.0056924247 -0.031115035
000180 5b 96 7c bc 48 e9 f9 3c 4e 19 f7 bd 1d 8c c0 bd
       -0.015416707 0.030506745 -0.12065373 -0.094017245
000190 da ab 9c 3d b5 57 eb 3d dd 54 92 bd cf 03 47 3d
       0.076499656 0.11491338 -0.07145093 0.048587617
0001a0 86 bd 3c bd 08 06 ae bb e6 bd d3 bd 02 90 f1 bc
       -0.04607918 -0.0053107776 -0.10338955 -0.029487614
0001b0 6e db 2b 3d 6c 8b 70 bd 24 a7 c7 bb 01 a0 9f 3d
       0.04195731 -0.058726713 -0.0060929228 0.0779419
0001c0 68 0c 69 3d 03 d8 db 3d 5a a0 54 bc f8 1a cd 3d
       0.056896597 0.1073456 -0.012977684 0.100149095
0001d0 f9 20 c6 3d 13 a6 40 3d 3b 9a f4 bd e2 84 b2 bd
       0.09674258 0.04703338 -0.119434796 -0.08716752
0001e0 53 35 93 3d 54 6d 97 bd 94 51 a9 3c b1 e2 4a 3d
       0.07187905 -0.073938996 0.020668782 0.049532596
0001f0 22 84 16 3d ed 26 b7 bd 1a 4a 87 3c bc ab ec bd
       0.036747105 -0.089429714 0.016514827 -0.11556193
000200 7f 0c e9 3d a0 a1 2b bd 49 c3 54 bd 38 18 ae bd
       0.113793366 -0.041902184 -0.05194405 -0.08500713
000210 1a dd 50 3d 09 2d 2c bd 08 16 a6 3b 93 6e b1 3c
       0.05099211 -0.042035136 0.0050685443 0.021659171
000220 3b 73 be bb 05 d8 f2 3d 40 cc ee 3d 48 73 fb 3d
       -0.0058120764 0.11857609 0.11660051 0.122778475
000230 0c 0f e8 3d 6b 6b 85 bd b8 b3 7b 3d 3c e1 cb 3d
       0.11330995 -0.06514629 0.06145069 0.099550694
000240 d6 2b 15 3d 12 b6 3e 3d 4b 6b 7a 3b 3c 18 c4 bc
       0.03641876 0.046560355 0.0038210924 -0.023937337
000250 66 3d c6 3d 40 60 a9 3d 02 e2 f0 3d 3e 01 b5 3d
       0.096796796 0.08270311 0.117618576 0.088381276
000260 72 f9 81 3d b3 39 a5 bd 9c af 86 3c 0c 0b 37 3d
       0.06346406 -0.08067646 0.016441159 0.04468827
000270 a9 33 b1 bd a0 fa d0 3d 34 b3 e4 bd 1a e8 37 3d
       -0.086524315 0.10204053 -0.11166993 0.044899084
000280 90 50 d2 3d 0e 74 f6 3d e2 71 df 3d 6c 1a cb 3d
       0.10269272 0.120338544 0.10910393 0.09917149
000290 0f 04 be 3d 4f c2 8f bd 13 7a d2 3d 57 7b 42 bc
       0.09278118 -0.07019483 0.1027719 -0.011870227
0002a0 81 2a e5 bd a1 fd b5 3d 53 93 ef 3c dc 7d c8 bd
       -0.111897476 0.088862665 0.029245054 -0.09789631
0002b0 a3 20 b4 bd 22 39 aa 3d b5 42 b8 3d 48 70 8e bd
       -0.087952875 0.083116785 0.08997098 -0.0695501
0002c0 f9 43 85 3d 67 10 93 bd 94 3a 22 3d fe 20 88 3d
       0.065071054 -0.07180863 0.039606646 0.06646918
0002d0 3e 66 44 3d 63 4c aa bd 0b 3a 85 bc d4 d9 13 bd
       0.04794907 -0.08315351 -0.016263029 -0.03609641
0002e0 34 c9 3e 3d e2 4e e0 3d 16 48 cb bd 72 b9 68 3d
       0.0465786 0.10952546 -0.09925859 0.05681748
0002f0 da db ec 3c 12 60 db 3c ff c0 82 bd 08 94 2f 3d
       0.028913427 0.026779208 -0.06384467 0.042865783
000300 ee 03 ca bd d5 a4 26 bb 95 04 c3 3d df ad 94 bc
       -0.09864031 -0.0025427837 0.09522358 -0.018149314
000310 2e ae c6 3c 2a e9 f7 3d e9 c0 bf bd 94 dc f2 3d
       0.024252977 0.121050194 -0.093629666 0.11858478
000320 ae 6d 19 3d d2 94 93 3d d4 96 ea 3d be 12 d6 bd
       0.037458114 0.072061196 0.114545494 -0.104527935
000330 f2 e7 6c bc 62 97 ed 3c 11 a3 9e 3d fd 75 10 bd
       -0.014459597 0.029002849 0.07745946 -0.035268772
000340 b5 8a db 3c 4e 02 8f bd c3 e9 05 be 91 dc b4 bd
       0.02679954 -0.069828615 -0.13077454 -0.08831132
000350 e8 cf bb bc 0f 70 ad bd e9 57 0b bd 12 d9 c4 bb
       -0.022926286 -0.08468639 -0.034019385 -0.006007322
000360 64 0d 38 bc d2 5e 29 3d d5 08 cb bc eb 7e 5c 3d
       -0.011233661 0.041350193 -0.024784485 0.053831976
000370 25 91 1e 3d 30 3f bd b8 3d 3b 7d bd de ee 84 3d
       0.03871264 -9.023992e-05 -0.061824072 0.06490873
000380 a2 6c 93 3d c2 9b 6c bd 3e 9b 9c 3d e5 ee b4 3d
       0.071984544 -0.05776573 0.076467976 0.08834628
000390 13 25 da bd 1a bc aa bc a0 cd c5 3d 3d 96 7e bd
       -0.106516026 -0.020841647 0.096583605 -0.062154997
0003a0 57 09 dd bd 39 7d 3e bd 3d c3 bd bd 42 fb c3 bd
       -0.10792797 -0.04650614 -0.09265754 -0.09569408
0003b0 dc a4 ca bc e6 1c d4 bc 23 69 e1 3d 94 71 a3 3d
       -0.024736814 -0.025892686 0.11006381 0.07980648
0003c0 ae 10 54 bd 14 04 bc bd a7 46 af 3c ab b1 88 3d
       -0.05177372 -0.09180465 0.021395994 0.066745125
0003d0 e3 28 c1 3d c4 7e e4 bd 43 03 91 bd e7 91 0c 3d
       0.09431627 -0.11156991 -0.070807 0.03431883
0003e0 e5 be ea 3d d1 1d 90 bc 06 a9 cc 3d fd 5e 67 bd
       0.114621915 -0.017592343 0.09993176 -0.056487072
0003f0 6a c8 5b bc b9 ac 3c bd f2 64 15 bd 9e d1 d0 bd
       -0.013414482 -0.04606316 -0.036473222 -0.10196231
